best_model_withheld.pt (torch, 106618 bytes, 17 tensors)

features.0.weight f4 [32, 13, 3, 3]
00000000: 93f6 883d 553b 953d 1d58 c9bc 033f 963d
00000010: 205a ffbc 14c4 da3b 6e79 49bd 6dd4 4a3d
00000020: a46c 9d3d a967 00bd c9b2 ee3d d078 5b3d
00000030: 328e bd3d af35 1b3d 736a 8f3d 4153 1d3c
00000040: 210d be3d e3f1 0a3d a753 d9bc e324 283d
00000050: 4bdd cdbc 3aeb 4138 75c7 d6bc e278 953d
00000060: f363 80bd d0ff 03bd b059 78bc 7ba3 42bd
00000070: b608 973c 7250 a2bd 20d5 9d3d a7db abbd
00000080: ffda 873d 8364 983c 2910 cebc 8fcc 7d3d
00000090: 19a4 9d3b 7c20 873d d3c9 443b 24c2 37bd
000000a0: 79e4 243c 607d 20bd ad70 be3c 32cf 8a3d
000000b0: 1ba1 223d 11a9 80bd f0a1 003d 5ba9 c0bb
000000c0: f923 993c af80 aabd a448 f3bd 11a1 89bd
000000d0: 5377 d1bd 0c07 2f3d 2605 b53c ee82 023d
000000e0: 4103 9e3c 8e5f 52bb 2857 8f3d 1326 92bd
000000f0: 727f 173c fe21 76bd 7bda c93c ae15 d5bc
00000100: 38c1 1f3c 2caf 49bd ec1b ef3d 72e9 20bd
00000110: 3654 3bbd 1e39 27bd 1161 863d b1a3 7d3c
00000120: 8f50 b13d 273c 94bd f34c c3bd 95d5 71bd
00000130: 3825 37bd db96 3e3d 3f83 083d b1e6 ad3d
00000140: 5e73 45bd ea4d a7bd 9e2d 723c c0c7 88bd
00000150: a9de 373d e4e8 45bd a730 033d ed83 98bd
00000160: c2fb 81bd 6d5f 633c 162c b2bc 07bb 84bd
00000170: f0a4 463c 79b2 9f3c 5bd5 e0bd 87ad bebd
00000180: 3362 2c3d 8bdb 95bd 0cee 9abd fcd9 59be
00000190: c358 34be 97f6 cebd 5d3e 0abe 1cfe 41be
000001a0: 7550 f7bd d006 3ebe 1475 4dbe e9bf 31be
000001b0: b392 a7bd e7b4 6ebd c06f bc3d cd88 793c
000001c0: ce22 e63c 85ec abbd 4eea 82bd 1e57 04bd
000001d0: c8ca 593c 4cd6 c4bd 1db8 5fbd f210 8ebd
000001e0: 699b 303c bd0f c9bc bbc1 a93b 03b5 52bd
000001f0: d3fb 53bd 21f2 25bd 1cfe e8bc afa3 8bbd
00000200: 077c a23d e06b 25bd fa92 733d 589b 233c
00000210: da28 92bd b8ac 873d 2794 a2bc c2fb 29bd
00000220: 45a3 a8bd a539 ccbd b53d 5d3c e587 fdbc
00000230: 9201 cc3c 4682 9ebd 8305 833d 4648 93bd
00000240: b86e edbc bd7e 9b3b 44d2 f13c 6a8b 9b3d
00000250: c9d4 a93d 9a96 9abd 8e9f cd3c 84bd 24bd
00000260: ae02 4dbc 95e1 91bd 3e48 a43d a8e8 95bd
00000270: 8b6b 723d a5ad 263d 6c73 153d ccec 16bd
00000280: 1a5f c33d c4ea f83c a3e0 123c 3f73 a6bd
00000290: fdf7 1c3d 1fd8 10bd c20c 70bd c645 803d
000002a0: 4cbb 853c 051d 5abd c7db 42bd 3719 01bc
000002b0: 00f9 813d feb3 adbc 6095 37bd 0141 91bc
000002c0: 9de8 7dbd 030a dd3c bd41 a03d 80d2 b3bd
000002d0: 83ef 383d a510 7c3d 0a2e 4e3d 959f 0cbd
000002e0: f56f 273d f525 5b3d 4a71 1b3d 027e 8fbc
000002f0: 450b 60bc 2f48 fd3c d635 f538 de1e 45bc
00000300: 1a93 3a3d cdeb 833d 6928 ffbc 42fc 08bd
00000310: 830e 77bc 731a e7bc 1854 853c fde2 f63c
00000320: fd1f b2bd 1206 a0bc d272 e83d 84a5 543d
00000330: 94f4 7ebc c877 33bd 0a9a 75bd b536 01bd
00000340: 79e3 973c 9b02 9f3d c4f9 d63d fe94 b63d
00000350: cd5e ffbc a89c a6bb b0aa 093d 936d 093e
00000360: d240 063e 6d41 c23d 9199 1e3e 485c ab3d
00000370: 50f8 713d fa5f 3b3e 1cd2 9c3d 4e36 ca3d
00000380: 5d2b e13c 54aa 533d aa0c 763d 8cdc cf3c
00000390: e5f8 76bd 98f3 afbd 67b0 93bd e34f 863d
000003a0: 938a 313d ef47 943d e448 6a3d 2265 e93c
000003b0: 784d 923b f66a 2ebd a16f 65bd 0e4d 84bd
000003c0: bec7 443d 9ced 1abd 2f8a 59bc 3fde 2dbd
000003d0: 8dd8 03bc d5b9 5ebd d986 65bd 443c 103d
000003e0: 4a0c afbc 6807 583d 95ff 02bd 55a6 8ebd
000003f0: cfaf abbc 182d 51bd 3d70 0abd 8e15 c6bd
0.06687655 0.07286707 -0.024578148 0.07336237 -0.031170905 0.0066762064 -0.04918807 0.04951899
0.07686737 -0.031348858 0.11655194 0.053582013 0.09255637 0.037892994 0.070027255 0.009602369
0.09279848 0.033922087 -0.026529146 0.041050803 -0.025129935 4.6233858e-05 -0.026218155 0.07298447
-0.06269064 -0.032226384 -0.015158102 -0.04751919 0.01843677 -0.079255 0.07706666 -0.08391505
0.06633567 0.018602615 -0.02515419 0.06196266 0.0048108217 0.06597993 0.0030027523 -0.04486288
0.010064238 -0.039182067 0.023247087 0.067778006 0.039704423 -0.06282247 0.031404436 -0.0058795637
0.01869391 -0.08325326 -0.118790895 -0.06720174 -0.102278374 0.04273133 0.022097182 0.031863146
0.019288661 -0.0032100412 0.069990456 -0.07136168 0.009246694 -0.06009101 0.024640312 -0.026011314
0.009750657 -0.049239323 0.116752476 -0.03928513 -0.045734607 -0.040825956 0.06561483 0.015480922
0.086579435 -0.07238036 -0.09536161 -0.05904158 -0.04471323 0.046530586 0.03332829 0.084912665
-0.048205726 -0.08169158 0.014781384 -0.06678724 0.04489008 -0.048317805 0.03202882 -0.07447038
-0.06346847 0.013877732 -0.021749537 -0.06480985 0.012124285 0.019494282 -0.10978194 -0.093104415
0.042085838 -0.07317265 -0.07564935 -0.2127456 -0.17611985 -0.10105627 -0.13500352 -0.18944591
-0.12075893 -0.18557286 -0.20064193 -0.17358364 -0.081822775 -0.05827799 0.09201002 0.01523037
0.028092768 -0.08394722 -0.06392346 -0.032309644 0.013292976 -0.096111864 -0.054618943 -0.06936826
0.01077924 -0.024543637 0.005180565 -0.051442157 -0.05175383 -0.040514115 -0.028441481 -0.068183295
0.079338126 -0.04038608 0.05946634 0.009985767 -0.07136698 0.0662474 -0.019846035 -0.04149986
-0.08234266 -0.09971932 0.013503482 -0.030948589 0.024903093 -0.077396914 0.06397536 -0.071915194
-0.028983459 0.004745333 0.029519208 0.075949505 0.08292539 -0.07548256 0.025100496 -0.0402198
-0.012512846 -0.071231045 0.080215916 -0.07319766 0.059184592 0.040692944 0.036487028 -0.03684692
0.095396236 0.030385382 0.00896469 -0.0812745 0.038322438 -0.03536236 -0.058605917 0.06263308
0.016324662 -0.05325033 -0.047572877 -0.007879547 0.06346321 -0.021203991 -0.04482019 -0.017731192
-0.061989415 0.026982313 0.078250386 -0.08780384 0.04515029 0.06153931 0.050336875 -0.034331877
0.040878255 0.053502996 0.037949838 -0.01751614 -0.013674562 0.030918209 0.00011692538 -0.012031285
0.045550443 0.0644146 -0.031147199 -0.033443697 -0.015079143 -0.028210854 0.01627545 0.030137533
-0.086975075 -0.019534145 0.11350025 0.05191566 -0.015561242 -0.043815404 -0.059961356 -0.031546313
0.018541085 0.07764169 0.10496858 0.08915137 -0.031173134 -0.005084593 0.033610046 0.13420705
0.13110664 0.09485135 0.15488268 0.083672106 0.0590747 0.18298331 0.07657263 0.09873639
0.027486498 0.05167611 0.06007067 0.02537372 -0.060295958 -0.08591384 -0.072113805 0.06558206
0.043345045 0.07240283 0.05719842 0.028490607 0.0044648014 -0.042582475 -0.05601466 -0.064600095
0.04804205 -0.03782426 -0.013277574 -0.04244828 -0.008047235 -0.054376442 -0.056036804 0.035213724
-0.021368165 0.05274144 -0.031982023 -0.06965319 -0.020957856 -0.051068395 -0.033798445 -0.0967208

features.0.bias f4 [32]
00000000: 5be7 e53c 6192 d4ba aea2 6fbd b5bb a13c
00000010: eb7a 183c c049 9b3d 0b0e 5f3d eafb 53bd
00000020: 5121 88bd a72b c0bc cd16 9cbd bb76 d23c
00000030: cba2 59bd d1de 8cbd 06c2 273d 7788 553d
00000040: f694 2bbc 8b95 91bd 4e32 f53c 71d0 053d
00000050: 9972 853d 7428 dd3c 9104 663d 1b88 b3bd
00000060: 1c75 d53d dc38 88bd c1e0 1dbd b526 803d
00000070: 75c1 eaba aca8 6f3d 22c7 3abd 582a 9d3d
0.02806442 -0.0016217941 -0.058504753 0.019742826 0.00930665 0.07582426 0.05445675 -0.051753916
-0.066469796 -0.023458315 -0.076215364 0.02569138 -0.053133767 -0.06878436 0.04095652 0.052132096
-0.010472527 -0.07108601 0.029931214 0.03266949 0.065159984 0.026996829 0.0561567 -0.087661944
0.104227275 -0.0665147 -0.03854442 0.06257383 -0.0017910438 0.058510467 -0.045600064 0.07674092

features.1.weight f4 [32]
00000000: a123 853f e43b 7f3f ef46 803f 45f0 803f
00000010: 3bc3 803f 26c0 803f 53fd 813f eade 813f
00000020: 0b92 813f 2d08 823f b7eb 803f 1657 813f
00000030: b26b 803f 899e 813f 74f9 813f 9610 7d3f
00000040: 75d4 803f 5943 813f 363a 823f 6db2 783f
00000050: 5f48 803f 47b1 803f 4ffc 7f3f fa46 803f
00000060: a572 813f 0609 823f 904d 813f da44 7e3f
00000070: 6ceb 803f 5dc2 7b3f 4279 803f e3da 803f
1.0401498 0.9970076 1.0021647 1.0073324 1.005958 1.0058639 1.0155433 1.0146153
1.0122694 1.0158745 1.0071934 1.0104702 1.0032866 1.0126506 1.0154252 0.98853433
1.0064837 1.0098678 1.0174015 0.97147256 1.0022086 1.0054101 0.9999437 1.002166
1.0113112 1.0159004 1.0101795 0.9932381 1.0071845 0.9834345 1.0037005 1.0066799

features.1.bias f4 [32]
00000000: d575 e83c ed85 6fbc bbcd fcbb 81b7 e4bb
00000010: b734 08bc 1c66 723c 6a13 12bb f3af b33c
00000020: e9bd a2ba a8bb 133c 8405 35bc 8ade 28bb
00000030: f4aa 923b bbee bf3a 5196 763c 122a b7ba
00000040: e517 7d3c f862 a23c a551 8d3c d8ac 24bc
00000050: 1f37 6fbb c9ea 993c 24f2 d0bb a874 d1bb
00000060: f0cd 903c 68eb 04bc d1d2 c03c 116f 01bb
00000070: 7524 953c 808b b83b 8751 723c e0e5 f83b
0.0283765 -0.014619333 -0.0077149547 -0.006979883 -0.008313349 0.014794853 -0.0022289404 0.021934485
-0.0012416217 0.009016909 -0.011048678 -0.002576741 0.0044759456 0.0014643291 0.015050487 -0.001397433
0.015447591 0.019822583 0.017250845 -0.010050975 -0.003650136 0.018788712 -0.0063765217 -0.0063920803
0.017676324 -0.008112766 0.023538025 -0.0019750039 0.01820586 0.005631864 0.014789945 0.0075957626

features.1.running_mean f4 [32]
00000000: c1f0 98bf 1fe2 2fbf de80 563f ace6 483f
00000010: b01c 323f de9a 813e 6f64 3d3f d3b2 1bc0
00000020: 8aa1 7ebf c356 823d 2e15 92bf 28f6 d03f
00000030: 7ef2 f1be bf57 ef3f 6d83 113d 4c4f a53e
00000040: 4085 563f b5a0 07c0 7ed8 023f 5c99 123f
00000050: d541 0d40 d66d 6fbf a219 2d3f fac5 fcbe
00000060: cb87 bcbe 964e 893f a8d1 193f 6439 b2bf
00000070: 8f3d 783e d881 273e 10c3 2cbe 6d8a 793f
-1.1948472 -0.6870441 0.83790386 0.7847698 0.69575024 0.25313467 0.73981375 -2.4327896
-0.9946524 0.06364205 -1.1412714 1.6325121 -0.4725532 1.8698653 0.035525728 0.3228706
0.83797073 -2.1191838 0.5111159 0.5726526 2.207143 -0.9352697 0.6761724 -0.49369794
-0.36822352 1.0727108 0.60085535 -1.3923764 0.24242233 0.16358125 -0.16871285 0.97476846

features.1.running_var f4 [32]
00000000: 6b9c a440 7fde 5f41 327c 4c41 4eea 7341
00000010: 601d 0b41 a850 de40 91fd c240 f653 5441
00000020: 1503 5541 5084 3741 a099 4941 8536 0a41
00000030: 3744 cf40 34a2 1841 e21f f840 91a4 4641
00000040: b3b5 1341 7980 5141 66b8 b540 cf90 a441
00000050: 645b 5d41 4fb5 4141 8fde f540 9be3 2141
00000060: 99d3 1741 019b 1d41 c334 1341 711e f140
00000070: ff7e 0641 66c1 4b41 8075 1f41 1d03 ab40
5.144094 13.99182 12.780321 15.244703 8.694672 6.9473457 6.093453 13.270498
13.313252 11.469803 12.600006 8.63831 6.477077 9.5396 7.753892 12.415177
9.23186 13.093865 5.6787596 20.570707 13.834812 12.106765 7.683418 10.118068
9.48916 9.850343 9.200381 7.534966 8.406005 12.734716 9.966187 5.34413

features.3.weight f4 [64, 32, 3, 3]
00000000: b889 bc3d 3d9d 593d 00de a83d fa97 eabb
00000010: 5076 ab3c 4ab4 4f3d 7d3c 8d3d 333a 613b
00000020: 25ef 8e3d ec54 8fbc 94d7 f5bc 4fc7 0d3c
00000030: 0ed3 30bd c9c4 55bd 0cb2 8d3c dfdc ca3c
00000040: dbcf cc3c 8229 f9bb f423 4bbd d46e 5cbd
00000050: 3967 4c3d d8cc 5cbd e087 4f3c 461b 2e3d
00000060: 8efd 433d 7f89 11bd 95c9 8abc 2b8c 5dbd
00000070: 3599 e33c 8c13 85bd d493 68bd 9435 2ebd
00000080: 8720 2f3d 8c05 fe3c 9840 083d 3701 1b3d
00000090: 715b 07bd 84e6 25bd e45a 30bd f04b 503c
000000a0: 8e8a 7b3c 5e21 9a3b 45fb 46bd 01bd 9cba
000000b0: 6585 14bd 0779 9639 ea28 603b cfd8 393c
000000c0: 1e6f 13bd e541 833d 5377 6ebc a6f9 0b3d
000000d0: 34d0 623d c55e 143d f532 d73c 3624 823c
000000e0: 3512 d33c ba70 80ba 9432 af3c a867 34bd
000000f0: 2cc3 2dbd 1a2b 7b3c 96a7 11ba 0918 703c
00000100: 8a38 0ebd 3c68 023d 3968 4b3d c32e 643b
00000110: 117f b53c b420 183d 00b3 45bd 4db7 a3ba
00000120: 5ecb d6bc e217 fcbc 0901 fe3c 1f30 5a3d
00000130: 4207 f33b fe97 fd3c c88a 57bd 2a81 903b
00000140: 1586 87bc 2e9a 29bd 3542 d73b e564 773c
00000150: 26be c3bb 3c47 a63c bd37 d83c 0679 543d
00000160: a994 fd3a 7007 dd39 dc8c 2fbc cb82 97bb
00000170: 34ac 54bd 14c2 c6bc 6393 8fbd 9f58 81bd
00000180: 90a8 72bd 6135 073d b6ea 3ebd e28f 84bc
00000190: 74d0 abbb 6983 223d 1ab8 923c 606a 4ebd
000001a0: 4aec 443d 5c9b 7abd 6e2e f43a 651e 3d3d
000001b0: 10e1 483d ec6c 98bc 8e45 29bd 30cb ef3c
000001c0: 109d 393d 7778 ebbc 98e1 0dbc b76d 19bd
000001d0: 9599 b53c 91c5 2f3b ceda 953c 0b4e f4bc
000001e0: 8117 86bd 5831 0ebd e574 5cbd ca91 98bc
000001f0: a313 763c c05e 5dbd 7514 0bbc 241c 83bd
00000200: 9f37 4dbd 8621 2dbd 1436 c2bc 0695 0cbd
00000210: 862b 2e3c 28a7 113d f302 323d 79a8 c53c
00000220: 6083 6c3b 0d20 d4bb eb36 503d 45a7 c5bc
00000230: 74c5 513d d449 44bd 72b3 15bd 39e2 ba3c
00000240: aebf 41bc 0c19 b73c 34e5 7c3d 0a4f 323d
00000250: 6ac5 973d 7969 0ebc 91d7 33bc 7931 ec3b
00000260: 61f8 e73a 98c8 fbbb 95c4 523c 3f66 903d
00000270: 29ef 99bc c1b4 3a3d fe7f 273d c3f0 463d
00000280: c566 f83c 69b6 c9bb 73a1 2e3d bc96 09bc
00000290: 65ab 97bc 9a36 993d b229 8c3d 97dc bcbc
000002a0: f48a 8c3d 143c 073d f651 113d 70d8 713d
000002b0: 9144 cbba f2bd 9dbc 193d 153d 10c2 85bc
000002c0: dd65 91bc 2204 b3bc 18bd 6e3d 5613 d63c
000002d0: 1b95 0d3c 6188 873c 50db a73c 122f 70bc
000002e0: 4c0a 143d 80ea d7bc a220 943c 2248 0b3c
000002f0: 0428 97bb bac6 8a3d 2ba8 eb3c 8f3e 343d
00000300: 77ec d6bc 6788 ad3c f4f6 ff3c c9b6 353d
00000310: d78e 8bbb 977e 923b 6712 4ebd b81a fb3c
00000320: 13e6 1c3d 3cad df3c 38d5 e23c 05ca 1a3d
00000330: ae7e 613d 5c2d 953c 1891 c63c a1bd 7e3c
00000340: 22e1 1abd f451 143c 9abe 713c 0c46 53bd
00000350: 97a0 bebc fadf 17bd 2da5 27bd 274a 153d
00000360: 89cb 7a3d f529 ab3b 1345 0a3d 16c3 b1ba
00000370: 6e6f c23c 79a7 163b a44a 75bc 1b0f 37bc
00000380: 1fa8 923d 70ce 3fbb e21d 3ebd 6282 34bc
00000390: f373 94bd b36f 76bc ce47 dc3c 45eb d5bb
000003a0: e4a2 dbba 87a8 95bd 702a a33a 7489 363d
000003b0: 98fc 02bd 09b5 f1bb 090c 6e3d 4651 123d
000003c0: 0ac6 323d 7d65 1dbd d324 5a3d 9374 ebbb
000003d0: 24a2 943c bfd8 583d 24af 48bd 8b87 b33c
000003e0: 7ea3 3fbd e523 323d 0ac3 993c e284 c73b
000003f0: 9989 65bc 1c84 f63c 983e 99bc d57a a83c
0.09205955 0.05312847 0.08245468 -0.0071592303 0.02093044 0.050709046 0.06896303 0.0034366965
0.06979207 -0.017496549 -0.030010022 0.008653476 -0.043170027 -0.052189622 0.017296813 0.024763523
0.025001457 -0.007603825 -0.049594834 -0.05381663 0.04990313 -0.05390629 0.0126666725 0.04250648
0.04784923 -0.035531517 -0.016941825 -0.054088753 0.027783016 -0.06497869 -0.056781605 -0.042531565
0.04275563 0.031008504 0.033264726 0.037842955 -0.03304619 -0.04050304 -0.04305543 0.012713417
0.015352858 0.0047036847 -0.048579473 -0.0011958183 -0.036260027 0.00028700402 0.0034204074 0.011343195
-0.03599464 0.06409053 -0.014554816 0.03417363 0.05537434 0.03622319 0.026269415 0.015886407
0.025765518 -0.000979922 0.021386422 -0.044044167 -0.04242246 0.0153301 -0.0005556283 0.014654168
-0.03472189 0.031837687 0.04965994 0.0034817911 0.022155317 0.037140563 -0.04826641 -0.0012490541
-0.02622002 -0.030773107 0.031006353 0.053268548 0.0074166367 0.030956265 -0.052622586 0.004409929
-0.016543427 -0.041406803 0.006569172 0.015099739 -0.005973595 0.02029764 0.026393766 0.05187323
0.0019346672 0.00042157946 -0.010714736 -0.004623746 -0.05192204 -0.024262466 -0.07010534 -0.06315731
-0.059242785 0.03300989 -0.046610557 -0.01618189 -0.0052433554 0.039676104 0.017910052 -0.050394416
0.048076905 -0.06118332 0.001862956 0.046171565 0.04904276 -0.018606625 -0.0413261 0.029271692
0.045315802 -0.028743966 -0.008659743 -0.037458148 0.02216796 0.002682064 0.01829281 -0.02982237
-0.06547452 -0.034715027 -0.053822417 -0.018624205 0.01501933 -0.05404544 -0.008488764 -0.06401852
-0.050101873 -0.0422683 -0.023707427 -0.034321807 0.010630494 0.035559803 0.043459844 0.024128186
0.0036089048 -0.0064735473 0.050833624 -0.024127612 0.051213697 -0.04792197 -0.036548086 0.02281295
-0.011825485 0.02235081 0.061742023 0.04353241 0.074107006 -0.008692139 -0.010976688 0.007208046
0.0017697924 -0.0076838247 0.012864252 0.07050752 -0.018790798 0.045582537 0.040893547 0.048569452
0.030322442 -0.006155778 0.04263444 -0.008397754 -0.018514344 0.074811175 0.0684389 -0.023054404
0.06862441 0.03301628 0.035478555 0.0590443 -0.0015508105 -0.019255612 0.03643522 -0.016327888
-0.017748768 -0.021852557 0.058285803 0.026132267 0.008641507 0.016544523 0.020490319 -0.01465966
0.036142632 -0.026356936 0.018081967 0.0085010845 -0.0046129245 0.06776185 0.028766712 0.044004973
-0.026235802 0.021183206 0.031245686 0.04436377 -0.004258971 0.004470657 -0.05031052 0.030652389
0.038305353 0.027304284 0.027689561 0.037790317 0.05505245 0.018210106 0.024239108 0.015548141
-0.03781236 0.009052742 0.014754916 -0.051580474 -0.023269935 -0.037078835 -0.04092901 0.03644767
0.061229263 0.0052235075 0.03375728 -0.0013562168 0.023734774 0.0022988005 -0.014971409 -0.011173035
0.07160973 -0.0029267333 -0.046415217 -0.011017414 -0.07248678 -0.01504128 0.026889708 -0.0065282905
-0.0016756919 -0.07307535 0.001244856 0.04456468 -0.031979173 -0.0073763174 0.058116946 0.03572204
0.043645896 -0.038426865 0.053257775 -0.0071855276 0.01814372 0.05294108 -0.048995152 0.021915218
-0.046786778 0.043491263 0.01876976 0.006088839 -0.014009857 0.030092292 -0.018706605 0.020566383

features.3.bias f4 [64]
00000000: aea8 7a3d d581 cd3c 1d3e 0a3d ef82 7a3d
00000010: aa5d 4ebd 5aa7 ed3b 4c18 ebbc 6417 dfbc
00000020: 51f3 643d 2b2c 0e3d b652 1f3d c762 a03d
00000030: 141f 82bc ceb8 25bc 8a56 ed3c 05d4 31bc
00000040: 72e6 d03c e991 8e3d 0738 42bd 53c7 183a
00000050: 441d 433d 633f e2bc f556 a1bc af4c fd3c
00000060: 5418 d03c 73e7 07bd c8b4 3dbc 866b 8d3c
00000070: 90db 803d f9f5 ccbc 995c 6cbc a218 67ba
00000080: 8999 963d 9514 1a3d 291b 823b b5b5 91bc
00000090: 06ff 513d 73f6 163c 2a15 babc 9767 803d
000000a0: 18d9 483c 81b6 8cbb 2b69 7d3d 339a c7bc
000000b0: 4470 2a3d e666 293d e3ab 1cbd 3d24 473d
000000c0: bc5f 173d c29c 3cbd 8c50 233d e600 4cbd
000000d0: 0f7f d13c b9f3 b63c 9646 bb3c e152 e9bc
000000e0: 2fbb 8e3d 0055 813d a84a cf3c bba4 603c
000000f0: d0a3 21bd 5d22 6f3d 62c5 2bba b535 3dbc
0.06119602 0.025086323 0.033750642 0.061160024 -0.050382294 0.007252616 -0.02869811 -0.027232833
0.055896107 0.03471009 0.03889724 0.0783134 -0.01588396 -0.010114862 0.02897193 -0.010853772
0.02550051 0.06961424 -0.047416713 0.00058280415 0.04763533 -0.027618116 -0.019694785 0.030920355
0.025402226 -0.03317971 -0.011578746 0.017263185 0.06291878 -0.025019633 -0.014426374 -0.0008815621
0.07353503 0.037617285 0.003970523 -0.01778684 0.0512686 0.0092140315 -0.02271517 0.06269758
0.01225879 -0.004294217 0.061867874 -0.02436552 0.04161097 0.041357897 -0.03824986 0.048618544
0.036956534 -0.046047933 0.039871737 -0.049805544 0.025573282 0.022333013 0.022860806 -0.028481903
0.06969296 0.063150406 0.025304154 0.01371115 -0.039462864 0.05838238 -0.00065525447 -0.011548449

features.4.weight f4 [64]
00000000: 7bb3 823f 9b6e 813f c44c 823f a8b5 813f
00000010: 0d08 813f 65ef 833f 8575 813f 3f4d 783f
00000020: f1ba 7e3f 4df2 813f 8703 813f 7506 823f
00000030: 85a3 803f 02c1 803f 0414 823f 5d35 813f
00000040: 2a08 7f3f 0d49 7d3f e48b 793f fac8 813f
00000050: 4cab 803f 8721 813f 2733 783f 4aa8 813f
00000060: 3859 813f b11d 723f acef 743f 9de2 803f
00000070: 668e 7c3f 16ee 813f 5980 7a3f ca21 823f
00000080: 5c71 813f a231 7f3f d43e 7f3f 0f96 743f
00000090: 874c 813f 99d5 813f 82f7 803f 0b7d 823f
000000a0: ecf5 813f d5b4 7c3f b6d3 7f3f 7a69 713f
000000b0: f5cb 813f 0dc6 803f e4ac 813f c6ee 803f
000000c0: 39cc 813f 3803 813f cbb9 7b3f c317 813f
000000d0: a54f 823f b939 7d3f 45d5 803f 6153 823f
000000e0: 156c 823f 94ec 7b3f e61d 653f 6362 823f
000000f0: 745d 823f 6273 813f 0bd0 803f dfd5 813f
1.0211023 1.0111879 1.0179677 1.0133562 1.0080582 1.0307432 1.0113989 0.9699287
0.99504 1.0152069 1.0079201 1.015822 1.0049902 1.0058901 1.0162358 1.009441
0.9962183 0.9893959 0.9747908 1.0139458 1.0052276 1.0088357 0.9695305 1.0129483
1.0105352 0.94576555 0.9567821 1.0069157 0.9865478 1.0150783 0.97852093 1.0166562
1.011272 0.9968511 0.99705243 0.9554147 1.0101479 1.014331 1.0075533 1.019441
1.0153174 0.9871343 0.9993242 0.9430157 1.0140368 1.006044 1.0130887 1.0072868
1.0140449 1.0079107 0.9833037 1.0085377 1.0180556 0.989162 1.0065085 1.0181695
1.0189234 0.98407865 0.89498746 1.0186275 1.018477 1.0113337 1.006349 1.0143393

features.4.bias f4 [64]
00000000: 501d 1f3c c95a 7d3c 4fab 883c 3414 2a3c
00000010: deb1 24ba 584e d23c 36d3 3cbb ba5f 233c
00000020: 183c 923c 4e2b 67bb dd91 aabb dfe9 b23c
00000030: be0d 483c ab5c 24bc 7158 5f3c bba4 d53b
00000040: 5569 e2bb f0ce 4a3c 2452 103c 7208 433c
00000050: 79e5 4f3c 4a61 563c 6e14 13bc f00c d0bb
00000060: 2b49 2d3c d0e5 62bb e690 303b ab3d 893c
00000070: 237d ff3b fb5c 4e3c d362 21bc 1902 303c
00000080: dd81 773c 63c8 d0bb aae0 383c 6cdf d03b
00000090: 5566 ccbb d9ba 7d3c f53b d7bb c071 823c
000000a0: 06fa 9ebb ab17 23bc a6f4 143c cbab 403b
000000b0: 0706 9bbb c012 443c 6003 83ba 2130 9dbb
000000c0: e863 863c 175d 70bb f223 1bbc 2980 0ebb
000000d0: f960 8e3c b20e 80bb 76bf 00bc 33ad ae3c
000000e0: b2ff 923c 97dc 443c 8a24 a9bb cf86 c6bb
000000f0: c3e3 15bb e607 663c 0cf1 6dbb af45 6dbb
0.0097115785 0.015463539 0.016683249 0.010380793 -0.0006282608 0.025672123 -0.0028812415 0.009971553
0.01785092 -0.0035273614 -0.0052053765 0.021840034 0.012210308 -0.010031859 0.013631926 0.0065198815
-0.006909529 0.012378439 0.008808646 0.011903869 0.012688988 0.013084719 -0.008977039 -0.0063491985
0.010576527 -0.0034621842 0.0026941835 0.016753038 0.0077969 0.01259541 -0.009850222 0.010742688
0.015106645 -0.006371544 0.011284033 0.00637429 -0.006237785 0.0154864425 -0.0065684267 0.01592338
-0.0048515825 -0.009954373 0.009091532 0.0029399272 -0.004730943 0.011967361 -0.0009995513 -0.004796997
0.01640506 -0.003667658 -0.009469019 -0.002174387 0.017380225 -0.003908002 -0.007858148 0.021322822
0.01794419 0.012015483 -0.0051618265 -0.006058551 -0.0022871352 0.014039969 -0.0036307005 -0.0036204865

features.4.running_mean f4 [64]
00000000: f11e 913e 104a 1a3d fb66 eebe 6244 ac3e
00000010: 9388 e93e 6504 20bd 047c 7d3e 46dd 3dbd
00000020: ffd8 8ebe 0011 b83e d824 993e 1f22 76be
00000030: 1cb9 843e d5e8 abbe a173 6dbe 067b 5c3e
00000040: b3aa d83d ff7b dfbc 3ca9 9d3e 2172 043d
00000050: c4e7 b23d 2939 66be dac3 a9be d6aa 3abe
00000060: 86ab 2a3d 02db 10be a60a 27bd 8a11 a8bb
00000070: 6994 d63d 4882 9bbe 3ee1 90bd 2273 9b3d
00000080: f8af ca3c 435e 0bbe dbba 4abd 9b15 a03e
00000090: bb4c 383e d6ee 39be c20b 23bd 132e 31be
000000a0: 74f7 c53d 3641 94be 028a e53e ec5d 743d
000000b0: 4c38 45bd e364 70bd c329 bb3e c755 9fbe
000000c0: c9b3 453d 722e 98bd 188c afbd d7a5 8fbe
000000d0: c031 96be 3b26 a7bd 22b8 68be fe77 a0bd
000000e0: 757f adbd 34cc 12bc e6cd 2b3d b38f 3a3e
000000f0: cc30 983d 0c8d b63d 039f ad3e 7e01 0b3e
0.2834392 0.037668288 -0.46562943 0.33645922 0.4561201 -0.03906669 0.2475434 -0.0463536
-0.2789993 0.3595047 0.29910922 -0.24036454 0.25922477 -0.33576074 -0.2318864 0.21531305
0.10579433 -0.027280806 0.30793178 0.032335404 0.08735612 -0.22482742 -0.33157235 -0.18229231
0.041667484 -0.14146045 -0.04078164 -0.005129044 0.10477526 -0.30372834 -0.070742115 0.07590319
0.024742112 -0.13610177 -0.049494606 0.31266484 0.1799802 -0.18157515 -0.039806135 -0.17302732
0.096663386 -0.28956002 0.44831854 0.059659883 -0.048149392 -0.058689963 0.365553 -0.3112013
0.04826716 -0.07430734 -0.08571643 -0.28056213 -0.2933483 -0.08161589 -0.22726491 -0.07835387
-0.08471576 -0.008959819 0.041944407 0.1821888 0.07431182 0.08913621 0.3391038 0.13574788

features.4.running_var f4 [64]
00000000: 65c4 a03d 5213 d33d 6f5d 413e bc3f 033e
00000010: bcdb 1f3e 219c d63d c127 f43d c99b 183e
00000020: 873c f63d 8e3b ff3d 2eea c83d e54e c73d
00000030: 238f bf3d 38f2 e03d 401b 173e bb8e 023e
00000040: 3ba2 e93d 385b e53d 643c fb3d ff3c cf3d
00000050: d11c 0c3e 25b8 b73d fc9f bf3d b2ef eb3d
00000060: 65e7 da3d cafe c13d b691 073e f90a f83d
00000070: 78bd f53d fd51 d23d db4f ec3d de4a 083e
00000080: 1e11 cb3d 4356 d23d dddc 0a3e 82f9 ea3d
00000090: 9456 2f3e 5e75 f93d b074 a93d 790b b23d
000000a0: 44e7 3b3e 7ba8 e43d 5627 ea3d 5a9b c63d
000000b0: 9927 953d 5081 9f3d 8fd7 e93d 4f5a 063e
000000c0: 746b ac3d 95c9 193e 6736 e33d 0700 ec3d
000000d0: bde7 203e 7150 963d b912 e13d 39e5 dd3d
000000e0: e0da de3d 0105 a93d 014c e93d 454b c23d
000000f0: e8fb e23d 9ef5 0c3e 6483 073e 6cb5 fb3d
0.07849959 0.103064194 0.18883298 0.12817281 0.15611166 0.10478998 0.11921645 0.14903177
0.120232634 0.12462531 0.09810291 0.09731845 0.09353473 0.109836996 0.14756489 0.1274976
0.11407896 0.11199039 0.12267378 0.10119056 0.13682868 0.0897067 0.093566865 0.11520328
0.10688666 0.09472425 0.13239178 0.12111468 0.11999029 0.10269544 0.11538669 0.1330981
0.09915374 0.10270359 0.13560815 0.11473371 0.1712287 0.12180589 0.082742095 0.086935945
0.1834994 0.111649476 0.11433284 0.096976 0.07282943 0.07788336 0.11418068 0.13120387
0.084189326 0.15018304 0.11094361 0.11523443 0.15713401 0.07339562 0.10989899 0.108347364
0.10881591 0.082529075 0.1139145 0.09487013 0.110832036 0.1376557 0.13233715 0.12290463

features.6.excitation.0.weight f4 [16, 64, 1, 1]
00000000: 92e1 d0bc 0e23 8f3b 6dc6 b0bc 1e65 71bd
00000010: 561e 6cbd e480 f7bc 5bb0 69bc 21f3 10bd
00000020: 724d 00bd f3e2 82bd 79c4 0dbd 0285 5c3d
00000030: c6a7 75bc b7cb 9fbc 3e95 abbb 1ad5 3e3b
00000040: 644f eebc 792e a33c 8fd2 033c 4543 1c3d
00000050: eb97 65bd 0617 5d3d 3eb1 f33c e4f5 c33c
00000060: 0657 543d f79c 90bc 8136 063d 5b1a b83d
00000070: 285f 0d3d cac9 19bc 498d 0cbd 0c0a 00bd
00000080: 5c84 7ebd 4eea c03d a7b5 87bc f37f 99bc
00000090: df0b 6cbd e7c5 a7bd 9d8e 93bc cbf4 f83c
000000a0: 0f4a 3abc d9b8 353d 153a a93d 963f d3bc
000000b0: 703b 143d 8f8b 1d3c 6327 a3bd 7c1a a8bc
000000c0: d444 1b3c 519c eabc 5c30 0ebd a015 cc3d
000000d0: 8938 e93c 0a68 aabd 499b 75bd c12f 6c3c
000000e0: f81f 56bd 8d2e 9b3b 1b34 263c e067 433c
000000f0: 419d 753d 5182 f73c b185 31bb aaa5 aa3c
00000100: dd9c 80bd 4d58 a3bd dedf 00be b620 cc3c
00000110: 2d46 b33d 8cc1 58bd 71f1 903d feae af3d
00000120: 83e1 0a3c 0652 4b3d 3f29 963a 42a5 7a3d
00000130: 2125 0a3d 8aa9 d03d c2ed df3d 5ea5 81bd
00000140: 31c3 323d fd35 203d c3b4 06be 69f7 ecbd
00000150: 7e18 5dbd c352 203d 8770 b13d e7ed 17bd
00000160: 91be 8dbd d11f d1bd 6740 533d 434c 94bd
00000170: a3c0 cc3c db22 413d 4897 cebb a50b 983d
00000180: deef 9b3d 95c8 bcbc 6928 d7bc a1f5 933d
00000190: e894 93bd e937 e3bd 6547 903d a747 96bd
000001a0: ffde bd3b e57f cb3c adc1 6f3d cad5 15bb
000001b0: c16e 903c f07c d6ba 5304 75bd 366b eebd
000001c0: 915f c13d cf45 d9bd 72a8 97bd b182 f8bc
000001d0: a184 b73d 876e 54bd cdec c83d bd68 1d3d
000001e0: 9540 9a3d 72c8 7ebd 5c8a 6b3d 5d41 b83c
000001f0: 033a d23d 4450 a3bd 06c5 cf3d e87c 99bd
00000200: 550b 7bbd 92c6 1b3e 3378 b63d 772c d83d
00000210: 907f e5bc 6272 1f3e 1eba ca3b 5dd6 113e
00000220: 3134 033e c513 82bd df3d 913a 5219 283e
00000230: 5312 f03d 21ac 453d 86b5 0e3d 18e1 973d
00000240: 9359 85bc addf f23b e212 13bd 86f8 ef3c
00000250: 4c32 2dbd 608e 1abd 537b ea3d cec3 003e
00000260: 83ea f1bc b47f a53c d0d3 3bbd 89f2 c63d
00000270: 57ff 70bd 6192 e5bc 4c13 973d 7f1b 043d
00000280: 7fdd a63d 858f 813c 4bc1 1c3e c0b5 053d
00000290: 1909 0e3e 9dfd 473d ef64 213e e991 35bd
000002a0: df4c 013e 3052 e8bb 2eec c33d 2fb2 f8bd
000002b0: a13a f23d adbf 29bc c377 8ebc 51e1 1fbc
000002c0: fa1d 063e 365f 4a3c 9984 a73c 92c1 1d3e
000002d0: 515c 073e c7c1 2d3d 4475 7039 49ea b33d
000002e0: 9070 623c c67a 0b3e b3d9 9b3d a4e5 003e
000002f0: 4eac e43d 32d1 4f3c 692e 70bd d12f 8bbb
00000300: 7823 53bd ed41 223d e113 f93c 722d e33d
00000310: fed5 d83d 76f5 fc3d c707 853d 15e3 acbd
00000320: 14c4 733b 2b3c f23c 61fb 98bc ff82 99bd
00000330: d644 0fbc 4f0a c93d ea79 2dbb 509d c63d
00000340: 1ba0 92bd f034 093c df19 9f3d 3940 563c
00000350: cac7 8b3d 14b9 983d 6592 babd 0ba8 87bd
00000360: 31f0 ba3d d999 033c 4fd3 e13d 2ca4 75bd
00000370: 292b 00bd d0ab eabc 0789 eb3d 90d7 e5bd
00000380: 965c 8fbc 9639 9b3d f243 a8bd d254 8f3c
00000390: 8197 b43d f45a fd3b 2474 ba3d 0c86 d13c
000003a0: 53e8 9c3d 91cd 16bc 7bf0 bf3d 57e2 aebd
000003b0: abf0 97bd 406f 873b 571e d53d ab74 0c3e
000003c0: 601a 10bd 2ae2 923d 95e3 703c 6229 0fbd
000003d0: 6eee 6bbd ff79 24bc 4d5c b2bc 4146 6d3d
000003e0: d64d c53d 6e0c 91bd 115d c43c 841d cb3d
000003f0: 955a c33d 7131 5a3c 3be5 0abd 5017 2ebd
-0.025498185 0.0043681925 -0.021578992 -0.058934323 -0.057646118 -0.030212827 -0.014263238 -0.035388116
-0.031323858 -0.063909434 -0.0346112 0.053837784 -0.014993614 -0.019506318 -0.005236297 0.0029118718
-0.02909059 0.01991962 0.008045807 0.03815009 -0.056053083 0.053977035 0.029747602 0.02392096
0.051840805 -0.017652972 0.032766823 0.08989402 0.034514576 -0.009386489 -0.034314428 -0.03125958
-0.062137946 0.0941969 -0.01656611 -0.018737769 -0.05762851 -0.08192044 -0.01801234 0.030390164
-0.011370196 0.044365738 0.082630314 -0.025787156 0.036189497 0.009615793 -0.07966497 -0.020520441
0.009476859 -0.02863899 -0.034714088 0.09965062 0.02846934 -0.08320625 -0.059962545 0.014415682
-0.05227658 0.004735774 0.010144259 0.011926621 0.059964422 0.030213507 -0.0027087743 0.020830948
-0.06279919 -0.079758264 -0.12585399 0.024917942 0.08753619 -0.052918956 0.07077301 0.08578299
0.008476618 0.04963877 0.0011456384 0.06119276 0.033726815 0.10188587 0.109340206 -0.063303694
0.04364318 0.039113987 -0.13154893 -0.11570627 -0.053978436 0.039141428 0.08664041 -0.037092116
-0.06921113 -0.102111466 0.05157509 -0.07241108 0.0249942 0.04715238 -0.006304655 0.07424096
0.076141104 -0.023044864 -0.026264386 0.07224584 -0.07206136 -0.110946484 0.070448674 -0.07337885
0.0057944055 0.024841258 0.058534313 -0.0022863024 0.017630937 -0.0016364139 -0.059818577 -0.116415426
0.09442056 -0.10609018 -0.07405175 -0.030335756 0.08960844 -0.05186322 0.09810791 0.038429964
0.07531849 -0.06220288 0.057504997 0.022492105 0.10264971 -0.07974294 0.10145001 -0.07494527
-0.061290104 0.15212467 0.08909645 0.10555356 -0.028014928 0.15570977 0.0061867377 0.1424193
0.12812878 -0.06351427 0.0011081061 0.16415909 0.11722245 0.048259858 0.034841083 0.0741598
-0.016278064 0.007411918 -0.03590668 0.02929331 -0.042284295 -0.037733436 0.114493035 0.12574694
-0.02953077 0.020202495 -0.045856297 0.09714229 -0.05883726 -0.0280239 0.073767275 0.032252785
0.08147716 0.015815506 0.1530811 0.032644033 0.13870658 0.04882585 0.1576116 -0.044328604
0.1262698 -0.0070898756 0.09566532 -0.12143361 0.11827589 -0.0103606405 -0.017391091 -0.009758309
0.13097373 0.012351802 0.02044897 0.15405872 0.1321881 0.04242113 0.00022931868 0.08784921
0.013820782 0.13621053 0.07609882 0.12587601 0.11165677 0.012684153 -0.05863801 -0.0042476435
-0.051547498 0.039613653 0.030404987 0.110926524 0.10587691 0.123515055 0.06495624 -0.0844175
0.003719573 0.029569706 -0.018674554 -0.07495689 -0.008744439 0.09816419 -0.0026470372 0.09697974
-0.07159444 0.008374438 0.077686064 0.013076835 0.06825216 0.07457176 -0.09109954 -0.066238485
0.09127844 0.008032286 0.11026632 -0.05997102 -0.03129116 -0.02864638 0.11500745 -0.11222756
-0.017500203 0.07579343 -0.082160845 0.0174965 0.088179596 0.0077317897 0.09104183 0.025576614
0.076615 -0.009204284 0.0937204 -0.08539265 -0.07418951 0.004133135 0.104061775 0.1371638
-0.035181403 0.071720436 0.014702697 -0.034951575 -0.05760043 -0.010038852 -0.021772528 0.057928327
0.09633987 -0.07082449 0.023970159 0.09917739 0.095387615 0.013317452 -0.033910017 -0.0425027

features.6.excitation.0.bias f4 [16]
00000000: ce4d 5bbd ab30 7fbd 1bc3 473d df02 413c
00000010: 9bbc d73d 5566 103d d687 d13c 390d 61bd
00000020: 2a68 e43d 1b5a 17b9 948b 903d 471c d2bd
00000030: 97cc 903c d026 d63d 7f71 bd3d 9ad3 b13d
-0.053540997 -0.062302273 0.04877005 0.01178047 0.105340205 0.03525384 0.025577467 -0.05494425
0.1115268 -0.00014434049 0.070578724 -0.102593 0.017675681 0.10456622 0.09250163 0.08682938

features.6.excitation.2.weight f4 [64, 16, 1, 1]
00000000: 681d 08bd a822 31be be8b cf3d 539d ee3d
00000010: 1e38 41be 8336 e5bc fe0c 1dbd 3568 9cb7
00000020: 4f89 e63d 5b86 4d3e ec6c 993d 4f0b e6bd
00000030: 0370 7bbd b47e 873e 16f7 ff3c 70d0 87bd
00000040: 882d b3bd 3008 1bbe f904 703e 642a 13be
00000050: 1e49 82be e4d4 cbbd 0f69 04be dce5 f4a8
00000060: 0a5c dbbd 5413 073e 7ec0 20bd b1ca ecbd
00000070: 8ae0 6bbd 03cb 3dbc 85cb 6a3e 59c3 873a
00000080: cceb 9d3c 554a 4bbe 8960 333e cbf6 603d
00000090: 5fd4 04bd d759 8f3d 603a b1bd 86f3 bdbd
000000a0: 1d9e b7bd cb9f df3d cb4a 603e 2ae5 14be
000000b0: a7ec f43c d1a9 6cbd 2069 4a3e ae75 593b
000000c0: 30cb fdbd 96f3 54be 7008 9c3d bc08 193e
000000d0: b495 1d3c 6d88 c13d e203 93bd 88da 19bd
000000e0: 7629 343d 3a4e 26be f54c 043e 0871 dfbd
000000f0: 6a07 f7bd 1d43 ac3d b4d3 cb3d bbb8 f8bd
00000100: 3307 82bd b63f 023c ec31 8bbd e9e0 603e
00000110: 3f4f a23d c449 9cbd 1d9e 07be c8c1 aebd
00000120: bbb2 543d 8fe4 44bd ec1e 803d 80c4 a83d
00000130: 5fd0 9b3d 7356 23bd 697f 053e f885 0bbe
00000140: 443e a33d e879 53be 4c7c 64bd f1aa 6abe
00000150: 091d 813d 44de 273d cbc4 82be 681f 40bd
00000160: ae95 163e 2949 4c3e e90f 2d3e e56f 75be
00000170: ffbd b9bc 10b0 f13d 0df4 cabb a432 2cbd
00000180: dfa9 0e3e cf9e c5bd 086f 4a3e 0e73 413e
00000190: 396b 20be 1894 2abe 9270 e6bd 68c7 aa3d
000001a0: 3f21 5abe decf 2d3c 7df4 1fbd 9f76 00bc
000001b0: 18b7 5cbd ddd6 72be 02f3 27be bf1c 62bc
000001c0: 57d3 9f39 30de d23c c00a a33d 0cc1 cfbd
000001d0: edce 8d3d 6f92 0a3e 9ddd 55be e53a e23d
000001e0: 780e e1bb 3b92 623c 8e76 6dbe 55f7 a73d
000001f0: c257 ac3c f5d7 fc3d 42c1 c33d f3e3 eebd
00000200: b041 113e f891 8d3d f7b2 98bd c7fb 903d
00000210: 6b2d a8bd 0885 773c de37 36bd 1636 743d
00000220: f4b4 603d d3be 2ebd f00d 3dbe 4780 edbc
00000230: a25d c8bc fe49 993c e10a 8e3d c307 8f3d
00000240: aa7e fdb8 c6b6 033e cddd a03d 6d6e a6bd
00000250: 3d43 393e ad17 46be a6ff ac3c 9b2e dcbc
00000260: 6512 383b eb3c 503e cee3 e63d 11ae d33c
00000270: 334a 02be 4eb7 4dbe 1c80 fcbb 8894 80bd
00000280: 61cd a53a ed68 3abe 21cb 7c3e ed98 69bd
00000290: 4718 353e a5d4 cd3d a846 603e 48ce 02ba
000002a0: 6429 6cbc 3d42 ea3d f04e 27be 472f bc3c
000002b0: 3b78 c63c 2e78 6cbd f3c0 11be ebb5 f93b
000002c0: 64a7 0cbb 8e70 fd3d ada0 18be e4d6 0b3d
000002d0: 8e28 8bbd 34ca b73d 6c36 313e d973 86a4
000002e0: 09d7 a53c 1c85 41be a03d d6bd 0cce 4abe
000002f0: ccc7 1b2e a415 793c eb08 9b3d a6ee cd3d
00000300: 2be6 8c3b b94c 3fbe 0f24 0abe 3360 c8bd
00000310: f090 3cbe d0b7 9b3d 9c78 83be e751 babd
00000320: 617e bebc d119 06be b246 263e c397 753d
00000330: ecf3 bc3d 5220 393e e993 51bd 7784 84bc
00000340: 3d4f 123d 57f0 1fbe 62d8 d53d 9810 2ebe
00000350: 7280 0e3e abb5 78bd befa e63d a0a0 953c
00000360: bde9 b63b 68a3 4a3d f9d0 2abd ce9f 7f3d
00000370: 7009 573d c7bb 483e a52d 54bc 5323 763c
00000380: 84b4 843c bd10 cc3d 8487 d63d 728b bd3d
00000390: 0a9e 51be 0b0c 283d 23f0 0abe 33b5 d63d
000003a0: f958 9cbd 36f5 143e 889c 963d a875 733d
000003b0: 2427 393b 04cb 393d 817c 7ebd 1397 103e
000003c0: 8333 8d3b 6366 303e bd2b d33d bea7 803e
000003d0: c13a f33c 0062 47bc 3b9e 903b f15f acbd
000003e0: eb54 f33d 230e 07be a37a 153e fdd9 8b3d
000003f0: 3e97 11be 0396 70bc a668 f5bc 5b20 debc
-0.03323117 -0.17298377 0.101340756 0.11651101 -0.18869063 -0.027980095 -0.03834247 -1.8645174e-05
0.11256658 0.20070784 0.07491478 -0.11232626 -0.06138612 0.26463854 0.03124575 -0.06631553
-0.08748919 -0.15139842 0.23439397 -0.1437164 -0.2544641 -0.09952715 -0.12930702 -2.7189127e-14
-0.107109144 0.13190967 -0.039246075 -0.11562098 -0.057587184 -0.011584046 0.22929199 0.0010357901
0.019277476 -0.19852574 0.17517294 0.05492286 -0.032429095 0.069995575 -0.08653712 -0.09274964
-0.089657046 0.1091915 0.21903531 -0.14540544 0.029898 -0.057779137 0.19766665 0.0033181715
-0.123922706 -0.20796046 0.07618797 0.14944738 0.009618212 0.09449849 -0.07178475 -0.037561923
0.043984853 -0.16240779 0.12919982 -0.10910231 -0.12061961 0.08411238 0.099524885 -0.121446095
-0.063490294 0.00794976 -0.06796631 0.21960796 0.07925271 -0.07631257 -0.13243909 -0.085330546
0.051928263 -0.048069533 0.06255898 0.082406044 0.07608103 -0.039877366 0.13036884 -0.13625324
0.079708606 -0.20651972 -0.0557826 -0.22916771 0.06304366 0.040983453 -0.25540766 -0.04690495
0.14705536 0.19949783 0.169006 -0.23968466 -0.022673605 0.118011594 -0.006193644 -0.042040482
0.13931988 -0.09649431 0.19768918 0.18891546 -0.15665902 -0.16658056 -0.1125194 0.08338815
-0.21301745 0.010608641 -0.03905152 -0.0078407815 -0.05388555 -0.23714776 -0.16401294 -0.013800799
0.00030484304 0.025740713 0.07961035 -0.10144243 0.069242336 0.13532422 -0.2088532 0.110463895
-0.00686818 0.013828809 -0.23189756 0.08201472 0.02103794 0.12345878 0.095583454 -0.116645716
0.14185214 0.06912607 -0.0745601 0.07079273 -0.08211788 0.015107401 -0.044486873 0.059621893
0.05486007 -0.042662453 -0.18462348 -0.028991831 -0.02445871 0.01871204 0.06935669 0.06983902
-0.00012087573 0.12862691 0.07854805 -0.08126531 0.18092056 -0.19344969 0.021117996 -0.026877692
0.0028087136 0.20335738 0.11273919 0.025839837 -0.12723617 -0.20089456 -0.0077057015 -0.0627833
0.0012649709 -0.18204089 0.24686863 -0.057030607 0.17685042 0.10050324 0.21901953 -0.0004989845
-0.014414165 0.11438415 -0.16338706 0.022971762 0.024227252 -0.0577318 -0.1423376 0.0076205633
-0.0021462077 0.12374984 -0.14905043 0.034140483 -0.067948446 0.08974114 0.17305917 -5.830949e-17
0.020244138 -0.18898433 -0.10460973 -0.19805163 3.5420375e-11 0.015202913 0.0757006 0.10055284
0.004299899 -0.18681611 -0.13490318 -0.097839735 -0.18414664 0.07603419 -0.25677955 -0.09097653
-0.023253622 -0.13095786 0.16237906 0.059959184 0.09226212 0.18078735 -0.05116645 -0.016176445
0.0357201 -0.15619026 0.10441662 -0.16998518 0.13916185 -0.060720127 0.11278294 0.018265069
0.005582063 0.049472243 -0.041703198 0.06240826 0.052499235 0.19602881 -0.012950336 0.01502307
0.016199358 0.0996413 0.10475066 0.09255113 -0.20470443 0.04102711 -0.13568167 0.1048378
-0.07634158 0.14546666 0.07354075 0.059438378 0.002825209 0.045359626 -0.062130455 0.1412013
0.004309119 0.17226557 0.10311077 0.25127977 0.029691102 -0.012169361 0.004413394 -0.08416737
0.11881431 -0.13188986 0.14597563 0.06828687 -0.1421785 -0.014684203 -0.029957127 -0.027115038

features.6.excitation.2.bias f4 [64]
00000000: b368 c33d dc08 323e 4cb4 103e e214 f33d
00000010: 71ef 97bb 4b7b e0bd 8e89 26be 0667 6c3e
00000020: 0391 33be 0550 36bd f9af 5e3e c788 bbbc
00000030: 7f56 45be 6c54 803e c7af 3abd e83b ec3d
00000040: 58c9 f13d 2404 87bd b4e5 3cbe 079e 95bc
00000050: 689c 3abe fa70 bbbd f168 43be df70 063e
00000060: fb64 1dbe 986b a33d b425 493e 3333 073e
00000070: 981f 1a3e d804 713d 002f 233e 2422 7f3e
00000080: 1900 8e3d 5a2b e53d d0de 293e 7273 343b
00000090: 9bae 623e 26df a23d 23fb 15be 1920 20be
000000a0: 6dee 7e3d 7c7e 3cbe b4ef 58be a23a 133e
000000b0: 79e5 3e3e 9d54 27bd 3928 083e 7153 b93d
000000c0: 09b7 773e 6f40 a33d 722a db3d b81e 2fbe
000000d0: 7944 d83d e4b4 2cbe dd53 39be c7d3 193e
000000e0: 7534 e2bd 2c94 3e3e f70b 07bd 3500 1a3e
000000f0: 3e86 6c3e 02bf 4a3d e749 6e3e dd2f 0fbe
0.09541454 0.17386192 0.14131278 0.118692175 -0.004636698 -0.10961016 -0.1626341 0.23086175
-0.17535786 -0.044509906 0.21746816 -0.022892369 -0.19271277 0.2506441 -0.04557779 0.11534864
0.118059814 -0.06592587 -0.18447 -0.01826383 -0.18223727 -0.09152408 -0.19083 0.13128994
-0.15370552 0.07979506 0.19643289 0.13203125 0.15051115 0.05884251 0.15935898 0.24915367
0.069336124 0.11189909 0.16588902 0.002753463 0.22136919 0.079527184 -0.14646582 -0.15637244
0.0622391 -0.18407625 -0.2118519 0.14377835 0.18642224 -0.040852178 0.13296594 0.09049118
0.24190916 0.07971274 0.10701455 -0.17101562 0.10559935 -0.1686588 -0.18098398 0.15022193
-0.11045162 0.1861121 -0.032970395 0.15039141 0.23098084 0.049498565 0.23270379 -0.13983102

classifier.2.weight f4 [1, 64]
00000000: 1f71 bb3d 20d8 6a3d 3c63 f13d be96 073e
00000010: 3aaa 3bbd 5c33 423d 7c5f abbd 5281 753d
00000020: ae05 513b b9bb a5bd 47b9 b1bd 37df 5b3d
00000030: 78a6 013e 2452 00be 8d84 d33d 7a14 d43d
00000040: 61e7 f4bd abeb 8c3d d5cb 913c 7396 e93d
00000050: 61e5 f83d 844f bf3d c725 58bd d82b 03be
00000060: 83f0 d73d 48fc 2dbc 36d4 593d 6a4c 5d3d
00000070: 6252 0d3d 1481 ee3d 7484 19bd 89d6 9e3d
00000080: 6d8c 9c3d aa18 83bd d579 823d ba9f 773c
00000090: f70e 0fbe e380 bb3d a943 ffbd 751e b13d
000000a0: c1a9 9fbd d619 8fbd 4161 a33d 3473 353c
000000b0: e7f7 dcbd a120 893d 668e b6bd 6794 00be
000000c0: ea7b f43d eac6 f1bd 8d28 7abd a247 b6bd
000000d0: 19be f63d 4685 d0bc 07d7 f7bd 40ce bc3d
000000e0: 9cdd ef3d 6432 403d b642 89bc cdb5 10be
000000f0: e53a 32bd 97a5 af3d 77c4 d2bd 00ef 10be
0.091524355 0.05733502 0.117865056 0.13241097 -0.045816638 0.04741226 -0.083678216 0.059937783
0.0031894254 -0.08092446 -0.08677917 0.05367967 0.12661159 -0.12531334 0.103280164 0.10355468
-0.119581945 0.068808876 0.01779739 0.11405649 0.121531256 0.09341338 -0.052770402 -0.12809694
0.10543921 -0.010619231 0.053180896 0.054027952 0.034502394 0.116457134 -0.037479833 0.07755763
0.076439716 -0.06401189 0.06370894 0.015113765 -0.13970552 0.091554426 -0.12464077 0.08648387
-0.0779605 -0.0698735 0.07977534 0.01107483 -0.10789471 0.066956766 -0.08913879 -0.12556611
0.11937697 -0.11805518 -0.06107383 -0.089003816 0.12047977 -0.025454175 -0.1210156 0.092190266
0.117121905 0.046923056 -0.016755443 -0.14131851 -0.043513197 0.08576506 -0.10291379 -0.14153671
