best_model_withheld.pt (torch, 106618 bytes, 17 tensors)

features.0.weight f4 [32, 13, 3, 3]
0	0x3c00622c	0.007835906
1	0x3d60fd3c	0.054929003
2	0xbd87f759	-0.06638975
3	0xbd296f14	-0.041365698
4	0xbc215a08	-0.009848125
5	0x3d374345	0.044741888
6	0x3cd421d2	0.025895033
7	0x3dc80640	0.09766817
8	0x3c8cdb1c	0.017194323
9	0xbaec13ae	-0.0018011236
10	0xbd6d7e6b	-0.05798189
11	0xbd5804b1	-0.05273885
12	0xbdcf2c1d	-0.10115836
13	0xbda2c453	-0.07947602
14	0xbd6a5ade	-0.057215564
15	0xbcdce2ca	-0.02696361
16	0x3ae350ff	0.0017342864
17	0x3c95f483	0.018305069
18	0xbda924f9	-0.08259005
19	0xbd81782e	-0.063217506
20	0x3c265bd8	0.010153733
21	0x3d8ac22c	0.067753166
22	0xbcef8994	-0.029240407
23	0x3d6df9cb	0.05809955
24	0xbcba573e	-0.022746678
25	0xb945baa1	-0.00018856909
26	0x3d958722	0.07301165
27	0xbd8d76a1	-0.06907392
28	0xbd34e5ba	-0.044164397
29	0xbc18ae16	-0.009318849
30	0xbcd4b40b	-0.025964757
31	0x3db1bc91	0.08678544
32	0xbd58b638	-0.052908152
33	0xbd15b48b	-0.036549132
34	0xbd751abd	-0.059839953
35	0xbda94c76	-0.08266537
36	0xbd7026f2	-0.05863089
37	0x3d91d727	0.07121115
38	0x3d0e99eb	0.034814756
39	0x3d3f1ca6	0.04665818
40	0x3bcd2f93	0.006261775
41	0xbd37068d	-0.04468398
42	0x3cd47f96	0.025939744
43	0xbd9bc822	-0.07606532
44	0xbd65c3d5	-0.056094963
45	0xbcd3baab	-0.025845846
46	0x3d9c324b	0.0762678
47	0x3d8f6b99	0.070029445
48	0xb9a890f3	-0.00032151453
49	0x3d0948fa	0.03351686
50	0x3dbf3600	0.093364716
51	0x3dfe80b5	0.12426893
52	0x3d8e39a8	0.06944591
53	0x3d2e80ca	0.04260329
54	0x3d8dd90a	0.069261625
55	0xbd236a58	-0.03989634
56	0x3cb31b77	0.021863682
57	0xbd8fbd4c	-0.070185274
58	0xbd788c6c	-0.06068079
59	0xbd3ed709	-0.046591792
60	0x3d0bbcd0	0.034115613
61	0x3d11380e	0.03545385
62	0xbd66af98	-0.056319803
63	0xbc01f790	-0.007932559
64	0x3b8b2551	0.004246392
65	0xbd5d0832	-0.053962894
66	0xbc95efd9	-0.018302845
67	0x3c670e71	0.014102564
68	0x3d5d6586	0.0540519
69	0x3daf4402	0.08557893
70	0xbd4f7c73	-0.050655793
71	0xbc333aee	-0.010939343
72	0x3c4c907a	0.012485618
73	0x3d9c1b99	0.07622451
74	0x3d2bf4c2	0.041981466
75	0x3d10e9cd	0.03537922
76	0xbb70cf50	-0.0036744662
77	0xbe02c733	-0.12771301
78	0xbd2e635b	-0.04257522
79	0xbda39043	-0.079865
80	0xbe0b8426	-0.1362463
81	0x3d9bba76	0.07603924
82	0x3d909cd3	0.07061162
83	0xbde5c36c	-0.112189144
84	0xbc2b1352	-0.010441618
85	0xbcfcd91c	-0.030865245
86	0xbd35db93	-0.044398855
87	0xbd51af26	-0.051192425
88	0x3d30c3db	0.043155532
89	0xbd6968f8	-0.05698487
90	0x3d9e5d4c	0.07732639
91	0x3db6b3a8	0.089209855
92	0x3dd8d2a6	0.10587053
93	0x3d9cc281	0.07654286
94	0xbd2d4332	-0.04230041
95	0xbc5f8bde	-0.013644187
96	0x3da6c795	0.08143536
97	0x3d661b9e	0.05617868
98	0xbcf7d960	-0.03025502
99	0x3d7f1ad1	0.062281433
100	0x3e420884	0.18948561
101	0x3e29bce3	0.16575961
102	0x3d96e210	0.07367337
103	0x3db492cc	0.08817062
104	0x3cde6dd1	0.027151974
105	0x3dd8e6ca	0.105908945
106	0x3d2f259b	0.042760473
107	0x3d258732	0.040412135
108	0xb8dd21f0	-0.000105444225
109	0x3c57003e	0.013122616
110	0xbcf425fe	-0.029803272
111	0x3d3c121c	0.045915708
112	0xbd3d2921	-0.0461818
113	0x3d897f99	0.067137904
114	0x3d6a6332	0.057223506
115	0xbd723a8c	-0.059137866
116	0xbc7f634d	-0.01558764
117	0xbcb61ac3	-0.022229558
118	0xbc4589b3	-0.012056756
119	0x3b5763cc	0.003286588
120	0xbc5ef683	-0.013608578
121	0xbd219293	-0.039446425
122	0xbda535fb	-0.080669366
123	0x3c72f511	0.014828936
124	0xbddf184f	-0.10893308
125	0xbd983f6b	-0.07433971
126	0xbb0dd3e0	-0.002164118
127	0xbcacbecc	-0.021087073
128	0xbba93d66	-0.00516479
129	0xbdb195a7	-0.08671122
130	0xbd0ce9c4	-0.034402624
131	0x3b66801e	0.0035171579
132	0xbd85ad97	-0.0652725
133	0xbc88cf8f	-0.016700534
134	0x3d52e0e2	0.051483996
135	0xbc748508	-0.014924295
136	0xbad84e45	-0.0016502818
137	0xbc84848e	-0.016176488
138	0x3c97c3c6	0.01852597
139	0x3d6d4067	0.057922747
140	0x3dab2c9c	0.08358118
141	0x3d7b5483	0.061359894
142	0x3db3dd29	0.08782417
143	0xbc2ab1d0	-0.01041837
144	0xbd7f0945	-0.0622647
145	0xbcc1e2de	-0.023667749
146	0x3da23e92	0.079220906
147	0x3cae2aec	0.021260701
148	0xbcd86d9a	-0.02641945
149	0xbd5abdaa	-0.053403534
150	0xbd74a318	-0.05972585
151	0xbd58eb1f	-0.052958604
152	0x39ec3da7	0.00045059362
153	0x3d83388f	0.06407272
154	0x3d83bbfd	0.0643234
155	0xbda0a06f	-0.078431
156	0x3d88e222	0.066837564
157	0xbd7375af	-0.059438404
158	0xbc560aaf	-0.013064071
159	0xbc8a86cb	-0.016909977
160	0x3b963bfd	0.004584788
161	0xbb659203	-0.0035029657
162	0xbd8f0295	-0.06982914
163	0xbd8328b1	-0.06404246
164	0x3b140caa	0.0022590556
165	0xbc2be750	-0.010492161
166	0xbd513630	-0.051077068
167	0x3cc6c243	0.024262553
168	0xbda47772	-0.08030595
169	0xbbe2fff8	-0.0069274865
170	0x3da0d888	0.078538
171	0xbd4675c4	-0.048452154
172	0x3de6d181	0.112704284
173	0x3d841476	0.06449215
174	0xbdb75c66	-0.089531705
175	0x3d8ae74d	0.067823984
176	0x3b00a3af	0.0019628813
177	0xbd539564	-0.051656142
178	0x3da2aaeb	0.07942756
179	0xbd80cafd	-0.06288717
180	0x3d4d41d2	0.0501116
181	0x3c25b51c	0.010113981
182	0x3dc39012	0.095489636
183	0x3d632e7c	0.055464253
184	0x3d998dee	0.07497774
185	0x3d71e3cb	0.05905513
186	0x3c5cf7e2	0.013486834
187	0x3c79adf2	0.015239226
188	0xbd24eeb1	-0.040266696
189	0x3d76bd68	0.060239226
190	0x3da1ddfc	0.07903668
191	0x3d8d019e	0.06885074
192	0xbca8fe20	-0.020628989
193	0x3d2d6d23	0.04234041
194	0xbcba753d	-0.022760982
195	0xbcf22c9a	-0.029562283
196	0xbd1f7338	-0.03892824
197	0x3d4c8a67	0.04993668
198	0xbdd93228	-0.1060527
199	0xbcc1121d	-0.023568207
200	0xbcae734f	-0.021295218
201	0x3d08201d	0.03323375
202	0xbd93e9a1	-0.072222956
203	0xbd6bac9b	-0.057537656
204	0xbdab1fb5	-0.08355657
205	0x3d427404	0.047473922
206	0xbd1b88e6	-0.037972353
207	0x3e01e627	0.12685452
208	0x3dac3fcf	0.08410608
209	0x3d846e76	0.06466381
210	0x3d56a867	0.052406695
211	0x3d0d359b	0.03447495
212	0x3d814574	0.06312075
213	0x3cfc18fc	0.030773632
214	0x3d459e8a	0.048246898
215	0x3d7717d5	0.060325462
216	0x3d9b9293	0.07596316
217	0x3dc5e129	0.096620865
218	0x3e54612b	0.20740192
219	0x3d968685	0.07349876
220	0x3e0aefc2	0.13568023
221	0x3e6520d2	0.22375801
222	0x3e2eb2a0	0.17060328
223	0x3e1046ca	0.14089504
224	0x3d81fa9a	0.063466266
225	0x3cd6f844	0.02624143
226	0xbd897fb0	-0.067138076
227	0xbd18f7d4	-0.037345722
228	0xbd1e869b	-0.03870259
229	0xbcced4a4	-0.02524788
230	0xbc847d54	-0.016173042
231	0x3d63f96a	0.05565778
232	0x3a675cf8	0.0008825804
233	0x3d68f14b	0.05687074
234	0x3d7d7eff	0.06188869
235	0xbd520edd	-0.051283706
236	0x3d3b5d31	0.04574317
237	0xbc11a973	-0.0088904975
238	0x3c8444c6	0.016146075
239	0x3d9f729d	0.077855326
240	0x3d9ab528	0.07554084
241	0x3def4c88	0.11684519
242	0x3c8e4257	0.017365618
243	0x3d1beb32	0.038066097
244	0x3daed9e8	0.08537656
245	0xbd4b8629	-0.049688492
246	0x3ded2ae3	0.115804456
247	0xbcca5f46	-0.024703633
248	0x3d45816c	0.04821913
249	0x3bb53232	0.0055296654
250	0xbcc8db27	-0.024518562
251	0x3cd713dc	0.026254587
252	0x3d8c9bf1	0.06865681
253	0xbd076d6e	-0.033063345
254	0xbd6b4f52	-0.057448693
255	0xbd052e37	-0.032514777

features.0.bias f4 [32]
0	0xbd2b3d3a	-0.041806437
1	0xbd614467	-0.054996874
2	0x3d167297	0.036730375
3	0xbd90af07	-0.07064634
4	0x3ca8e785	0.02061821
5	0xbd74b7ae	-0.059745483
6	0x3d755786	0.059897922
7	0x3cc68538	0.024233446
8	0xbd0e3168	-0.034715086
9	0x3d6964a8	0.05698076
10	0xbd21590d	-0.039391566
11	0x3d0fa7dc	0.035072193
12	0x3d3a585b	0.04549442
13	0x3c0149ed	0.00789116
14	0x3c90b44d	0.0176641
15	0xbc3f7440	-0.011685431
16	0xbd119871	-0.03554577
17	0x3d82a529	0.06379158
18	0x3d5cab2d	0.053874183
19	0x3d53c1b3	0.051698398
20	0x3d372fc6	0.044723295
21	0xbd54b004	-0.051925674
22	0xbcb1ce18	-0.021704718
23	0x3cca1e2c	0.02467259
24	0x3d8ae7ab	0.067824684
25	0xbd9e8160	-0.0773952
26	0xbccb67e5	-0.024829814
27	0xbbd14118	-0.0063859336
28	0xbd4d1372	-0.050067373
29	0xbd4a9ac2	-0.049463995
30	0x3db5b54e	0.08872472
31	0xbc1722d4	-0.009224612

features.1.weight f4 [32]
0	0x3f7dde39	0.9916721
1	0x3f7f5217	0.99734634
2	0x3f817e17	1.0116605
3	0x3f7e9f0d	0.9946144
4	0x3f7da86f	0.99085134
5	0x3f80416e	1.0019968
6	0x3f7c8527	0.98640674
7	0x3f80bc80	1.0057526
8	0x3f8027b2	1.0012114
9	0x3f7f7e12	0.99801743
10	0x3f81d005	1.0141608
11	0x3f80c59d	1.0060307
12	0x3f7fc8e0	0.99915886
13	0x3f80c2fe	1.0059507
14	0x3f8087b8	1.0041418
15	0x3f811835	1.0085512
16	0x3f8096f5	1.0046068
17	0x3f817e24	1.011662
18	0x3f822c43	1.0169758
19	0x3f811bcf	1.0086612
20	0x3f8258a6	1.0183303
21	0x3f7e2cf5	0.9928735
22	0x3f80fec3	1.0077747
23	0x3f832e89	1.0248576
24	0x3f817e4c	1.0116668
25	0x3f829c72	1.0203993
26	0x3f81a8e2	1.0129664
27	0x3f81d257	1.0142316
28	0x3f81977f	1.0124358
29	0x3f800c30	1.0003719
30	0x3f826160	1.0185966
31	0x3f80f224	1.0073895

features.1.bias f4 [32]
0	0xbc99dfd3	-0.018783486
1	0xbc84590e	-0.016155746
2	0xbaabe994	-0.0013115876
3	0xbc6636d0	-0.014051154
4	0xbccf4eec	-0.025306188
5	0xbb1b5519	-0.0023701845
6	0xb7ec6cbe	-2.818403e-05
7	0xbc43e115	-0.011955519
8	0xbc4e04d0	-0.01257439
9	0x3bc0a148	0.005878601
10	0xbc17d4db	-0.009267057
11	0x3c85c3da	0.01632874
12	0x3ca89a88	0.020581499
13	0xbab0ce2d	-0.001348918
14	0x3a84854b	0.0010110525
15	0xbc243c5f	-0.010024159
16	0xbc17f8a2	-0.009275587
17	0x3c5f1407	0.013615615
18	0x3c956f0b	0.018241426
19	0x3c991585	0.01868702
20	0xbc7c7ec6	-0.0154110845
21	0xbbc4343d	-0.0059876726
22	0xba8646b6	-0.0010244462
23	0x3ce093d4	0.02741424
24	0xbbafc15d	-0.005363627
25	0xbba70748	-0.0050973035
26	0x3cde019f	0.027100382
27	0x3c766f6f	0.015041216
28	0x3ce18fd0	0.027534395
29	0x3ca877f5	0.020565012
30	0x3cdbc6cd	0.026828194
31	0xbc584c3a	-0.013201768

features.1.running_mean f4 [32]
0	0x3fabaed3	1.3412727
1	0x3fe380ba	1.7773659
2	0xbf9a272b	-1.2043203
3	0xbff27e24	-1.8944745
4	0x3f1ca5c2	0.61190426
5	0xbf82fba6	-1.0233047
6	0xbed2f715	-0.41204134
7	0x3ed75086	0.42053622
8	0x3dd84186	0.105593726
9	0x3f9ba580	1.2159882
10	0x3e2fce75	0.17168601
11	0xbf93f2c2	-1.1558459
12	0xbe703421	-0.23457386
13	0x3f8c0fa2	1.0942271
14	0xbf8b471d	-1.0881077
15	0x3d12db43	0.035853636
16	0xbe896eb1	-0.26842263
17	0x3e8fe054	0.28100836
18	0x3ed27b66	0.4110977
19	0xbfb82257	-1.438548
20	0x3ee8df5c	0.4548291
21	0xbef0f942	-0.4706517
22	0x3fdcbb94	1.7244744
23	0xc00440e1	-2.06646
24	0x3fb33f39	1.4003669
25	0x3edf5a78	0.4362371
26	0xbd8a9c3a	-0.06768079
27	0xbec17f73	-0.3779255
28	0xbd4781a8	-0.048707634
29	0x3f069b96	0.52581155
30	0xbf34a132	-0.70558465
31	0xbe5e8288	-0.21729481

features.1.running_var f4 [32]
0	0x41ca7fe0	25.312439
1	0x41d57fa4	26.687325
2	0x414b3121	12.699494
3	0x420365bb	32.849346
4	0x4165dbec	14.366192
5	0x418b2bbf	17.39636
6	0x41119bd1	9.100541
7	0x41411850	12.068436
8	0x40fd2078	7.9102135
9	0x41757fb5	15.343678
10	0x41144350	9.266434
11	0x4129f248	10.621651
12	0x41887aae	17.059902
13	0x40a56096	5.1680403
14	0x418c3ab5	17.528666
15	0x41095539	8.583306
16	0x40fcbf31	7.898339
17	0x418953df	17.165953
18	0x4105785d	8.341886
19	0x417a99e3	15.66257
20	0x4121af83	10.10535
21	0x411029c3	9.010196
22	0x41db12a3	27.3841
23	0x41696fd2	14.5898
24	0x419793e6	18.947216
25	0x4150ec30	13.057663
26	0x410560b1	8.336106
27	0x40988eef	4.767448
28	0x4176851d	15.407498
29	0x4189b5e3	17.213812
30	0x414cf741	12.810365
31	0x40c1a8f8	6.051876

features.3.weight f4 [64, 32, 3, 3]
0	0xbd27c015	-0.040954668
1	0xbb9dc781	-0.0048150425
2	0x3b41fc23	0.0029599748
3	0xbc61cff9	-0.013782495
4	0xbd303a7d	-0.04302453
5	0x3d19362f	0.03740519
6	0xba668436	-0.00087935047
7	0x3d800563	0.062510274
8	0xbd1f5e4e	-0.038908295
9	0xbc98dfd9	-0.018661426
10	0x3c078551	0.008271531
11	0xbcdeea36	-0.02721129
12	0x3d6cf939	0.057854865
13	0x3d70a937	0.058755126
14	0x3d8bcf20	0.06826615
15	0xbccc0a2c	-0.024907194
16	0x3d51dc91	0.05123574
17	0x3d580b58	0.052745193
18	0xb9f23d8e	-0.000462037
19	0x3cf5ffa3	0.030029124
20	0x3d51b669	0.05119935
21	0x3d73cedf	0.05952346
22	0xbd0f38f3	-0.03496642
23	0x3d9d00c2	0.0766616
24	0x3b33dee8	0.0027446095
25	0x3d303d75	0.04302736
26	0xbc94777f	-0.018123386
27	0xbd1daca5	-0.038494725
28	0xbd0e4ce5	-0.0347413
29	0x3d2f4f72	0.042800374
30	0xbcb40410	-0.021974593
31	0x3d22098a	0.03955988
32	0x3cd9ee5c	0.026602916
33	0x3cf5c929	0.030003147
34	0xbbfb76a2	-0.0076740542
35	0xbc16e4c6	-0.009209817
36	0xbb720bd0	-0.003693331
37	0xbc31167e	-0.010808585
38	0x3d97da9c	0.07414743
39	0x3c96e6e9	0.018420653
40	0xbb9a6008	-0.004711155
41	0xbd0d5e16	-0.034513555
42	0x3cf82ea2	0.030295674
43	0xbd0595be	-0.03261351
44	0x3cc4433f	0.023957847
45	0x3d4afd24	0.04955782
46	0xbc9f46b2	-0.01944289
47	0x3d26835d	0.04065262
48	0xbc174c19	-0.009234452
49	0xbd082f02	-0.033247955
50	0xbd55cdbf	-0.052198168
51	0x3d1d2607	0.038366344
52	0xbd09102a	-0.03346268
53	0x3d1096d3	0.035300087
54	0x3c520532	0.0128186215
55	0x3d0c5c05	0.034267444
56	0xbd2262d1	-0.03964502
57	0x3d56fe20	0.052488446
58	0xbd6fa33a	-0.058505274
59	0xbd35a305	-0.04434492
60	0x3d1d9f18	0.0384818
61	0x3b72e6b8	0.0037063789
62	0xbcf38f9b	-0.029731562
63	0x3bca4689	0.006172959
64	0xbd089348	-0.033343583
65	0xbced5690	-0.02897194
66	0x3b6b9f20	0.0035953
67	0x3d7c31b4	0.061570838
68	0x3d1b962a	0.037985004
69	0x3cd6901e	0.026191767
70	0xb9729d15	-0.00023137436
71	0x3d93b32f	0.07211911
72	0x3c5d1884	0.0134946145
73	0x3cfabc87	0.030607475
74	0x3c6b86b3	0.0143753765
75	0x3c999455	0.018747488
76	0x3ce057e5	0.027385661
77	0x3d651ff6	0.055938683
78	0x3d41761f	0.04723179
79	0x3c9f5807	0.019451154
80	0x3d1ddbc1	0.03853965
81	0xbc9ae6d1	-0.01890889
82	0x3d1c7ef4	0.03820701
83	0x3c7eb693	0.015546459
84	0x3d20ef04	0.039290443
85	0xbc6795b2	-0.014134811
86	0xbd5566fc	-0.052100167
87	0x3b908167	0.004409957
88	0x3c8a6bcb	0.016897103
89	0x3d274311	0.040835444
90	0x3d18f420	0.03734219
91	0x3d1b9512	0.03798396
92	0x3d8c8f53	0.068632744
93	0xbbc1b78e	-0.005911774
94	0x3d874066	0.0660408
95	0x3d4b06ef	0.04956716
96	0x3d51df29	0.051238213
97	0x3d5fd6a4	0.054648057
98	0xbcf4d88f	-0.02988842
99	0x3d1796dd	0.03700911
100	0x3d7c0792	0.061530657
101	0xbd1d7f5a	-0.03845153
102	0x3ae640f2	0.0017566963
103	0xbcee2b76	-0.029073458
104	0xbc392fe6	-0.011302924
105	0x3c4e1773	0.012578833
106	0x3d1176d5	0.035513718
107	0xbc96064e	-0.018313553
108	0xbd39f8e0	-0.04540336
109	0x3d1d2fce	0.03837567
110	0x3d1ad696	0.0378023
111	0x3a581997	0.0008243559
112	0x3d739c0a	0.059474982
113	0x3d565746	0.052329324
114	0xbb83395a	-0.0040046396
115	0x3c092396	0.008370301
116	0x3c75cde6	0.015002703
117	0x3c8b5d1e	0.017012175
118	0x3c508acf	0.012728407
119	0xba3f28ca	-0.000729215
120	0xbbeef296	-0.007292102
121	0x3d5a9dfd	0.053373326
122	0x3ba661a8	0.0050775595
123	0xbbad0a6e	-0.0052807843
124	0x3d94274c	0.07234058
125	0x3cf3af15	0.029746572
126	0x3d4134a0	0.047169328
127	0x3d76210c	0.06009011
128	0xbb25490e	-0.0025220546
129	0x3c375b4b	0.0111911995
130	0x3d705b69	0.058680926
131	0xbd15b410	-0.036548674
132	0xbc76da9e	-0.015066771
133	0x3c5f897e	0.013643621
134	0x3a1d3c95	0.0005998102
135	0x3cf8979e	0.030345734
136	0x3d3bc9e3	0.04584683
137	0xbbce001c	-0.006286634
138	0x3c9c0047	0.019043101
139	0x3d8a8f28	0.06765586
140	0xbc799950	-0.015234306
141	0xbcba31b4	-0.022728778
142	0xbce0e7f7	-0.02745436
143	0x3d5e747f	0.054310318
144	0xbcf27356	-0.029596012
145	0xbb8c6d16	-0.004285465
146	0x3d84ee74	0.06490794
147	0xbc8b407a	-0.016998518
148	0x3d8520f0	0.06500423
149	0xbc19e16e	-0.0093921255
150	0x3cb9789c	0.022640519
151	0x3cb00186	0.021485101
152	0x3c55a621	0.0130400965
153	0x3ccff3d0	0.025384814
154	0x3d223f64	0.039611235
155	0xbd4a9afc	-0.04946421
156	0x3cba443a	0.022737611
157	0x3bdc2521	0.0067182933
158	0xbc4a34ab	-0.012341659
159	0xbd5caac6	-0.0538738
160	0x3ba48cd9	0.005021673
161	0x3ce5a703	0.028033739
162	0xbd691dab	-0.05691306
163	0xbd816371	-0.06317795
164	0xbd87a89d	-0.06623957
165	0x3bacade2	0.005269752
166	0xbcddf512	-0.027094398
167	0xbcebc34d	-0.02877965
168	0x3d3f99f8	0.046777695
169	0xbccb292d	-0.024799908
170	0xbd400227	-0.046877053
171	0xbbe9faf2	-0.0071405107
172	0xbd332e0e	-0.043745093
173	0xbccffac4	-0.025388129
174	0x3ca9232a	0.02064665
175	0x3b617bd2	0.0034406078
176	0xbd40e16f	-0.04708999
177	0x3d3421e9	0.04397765
178	0x3ceb97ba	0.028758872
179	0xbd42552c	-0.047444507
180	0x3d6f98fe	0.058495514
181	0x3d6adb87	0.057338264
182	0xbc58c7b8	-0.01323121
183	0xbc1b4ffb	-0.009479518
184	0xbc8fa1dd	-0.017533237
185	0x3d553688	0.05205396
186	0x3d11956f	0.0355429
187	0x3d48fbb7	0.04906818
188	0xbbcb680b	-0.0062074712
189	0x3d6c5e4d	0.05770712
190	0x3caadf21	0.02085835
191	0xbcf8b43c	-0.03035938
192	0xbb4f98b1	-0.0031676705
193	0x3d2ad123	0.041703355
194	0x3ce3684e	0.027759697
195	0x39c6b5db	0.00037900996
196	0xbd003759	-0.031302784
197	0xbccc50e3	-0.024940914
198	0x3d84e07a	0.06488128
199	0xbca15ee2	-0.019698564
200	0x3d65127a	0.055925824
201	0xbb7dc8ee	-0.00387245
202	0x3c7239d8	0.014784299
203	0xbd2e27eb	-0.042518537
204	0xbc13d815	-0.009023686
205	0x3d70ebd4	0.058818653
206	0xbd2c4f15	-0.042067606
207	0x3c9b0138	0.01892148
208	0xbd73408b	-0.059387725
209	0xba655c54	-0.00087494147
210	0xbd88d348	-0.06680924
211	0xbd78f74b	-0.060782712
212	0xbd73f20c	-0.059557006
213	0xbd099d62	-0.033597358
214	0xbba99b3b	-0.0051759756
215	0xbd5e1b74	-0.0542254
216	0x3cf9f973	0.030514454
217	0x3d4ba949	0.04972199
218	0x3d823288	0.06357294
219	0x3d88c5fd	0.06678388
220	0x3d568892	0.052376337
221	0xbb034c7c	-0.0020034602
222	0x3bc72d5e	0.0060784062
223	0x3d7bfecc	0.06152229
224	0x3d28a2af	0.041170772
225	0x3c4b4a52	0.012407856
226	0x3d9032f3	0.07040968
227	0xbcbcad13	-0.023031747
228	0x3da018e3	0.07817247
229	0x3d71f33e	0.059069864
230	0xbc818bb0	-0.015813679
231	0xbcb924a0	-0.022600472
232	0x3d8ef499	0.06980247
233	0x3da9ae83	0.082852386
234	0x3ac06ec1	0.0014681445
235	0xbccea9b5	-0.025227407
236	0x3cf59749	0.029979365
237	0x3c9b565e	0.018962082
238	0xbc57d703	-0.013173821
239	0x3d226936	0.03965112
240	0x3d0033cd	0.0312994
241	0x3c134ab4	0.008989979
242	0x3cc38ea3	0.023871725
243	0xbd6707d6	-0.056403957
244	0xbcf7cebc	-0.030249946
245	0x3b18e675	0.0023330722
246	0x3c0b2bae	0.008494301
247	0xbc7216cd	-0.014775944
248	0x3c5184ac	0.012787979
249	0x3b9ec3cf	0.0048451195
250	0xbd889f4e	-0.0667101
251	0x3b450452	0.003006239
252	0xbbb0c21f	-0.005394235
253	0xbd1eb37d	-0.038745392
254	0x3b607949	0.003425198
255	0xbca3f6b6	-0.020015102

features.3.bias f4 [64]
0	0x3b87f22a	0.0041487413
1	0x3d4fe26f	0.050753053
2	0x3ca6e396	0.020372193
3	0xbbb08fd3	-0.005388239
4	0x3d229fa2	0.03970302
5	0x3d463d7e	0.048398487
6	0xbd165909	-0.036706004
7	0xbd6dd677	-0.058065858
8	0x3d175b77	0.036952462
9	0xbc9d4a16	-0.019200366
10	0x3ca76ccb	0.020437619
11	0x3ca52df8	0.020163521
12	0x3cd78097	0.026306434
13	0x3a28ccce	0.00064392097
14	0x3d273e56	0.040830933
15	0x3d3ecea2	0.04658378
16	0x3d4c8576	0.049931966
17	0x3d48143c	0.048847422
18	0x3b9e468b	0.0048301867
19	0x3d79c540	0.060979128
20	0x3d51fbf6	0.05126568
21	0xbd517d09	-0.051144633
22	0xbd32b547	-0.04362991
23	0xbd1b8b3f	-0.037974592
24	0x3c3473c5	0.01101393
25	0xbb28c482	-0.0025751893
26	0xbd47df48	-0.048796922
27	0x3d26337d	0.040576447
28	0x3d5e002b	0.05419938
29	0xbd625bde	-0.055263393
30	0x3d1b6821	0.037941102
31	0x3d226eb3	0.039656352
32	0xbbb91691	-0.005648442
33	0xbc550711	-0.013002173
34	0x3b882db8	0.0041558407
35	0xbd31cf70	-0.04341072
36	0xbd2c71f8	-0.042100877
37	0x3cbc82e9	0.023011642
38	0x3c7f445f	0.015580266
39	0x3cd9a326	0.026567053
40	0xbd510dd2	-0.05103857
41	0x3b28688a	0.0025697076
42	0xbca27ac9	-0.01983394
43	0x3cb0dd25	0.021589825
44	0xbd10fe59	-0.035398815
45	0x3c65ffef	0.01403807
46	0xbd613b61	-0.05498827
47	0x3d8d7aff	0.06908225
48	0xbcfabef0	-0.030608624
49	0x3c5e24ec	0.013558608
50	0x3cbaa5ac	0.022784077
51	0x3d04404c	0.03228788
52	0xbc307b95	-0.010771652
53	0x3d2a93a8	0.041644722
54	0x3c345e6c	0.01100884
55	0x3c0e5452	0.008687096
56	0x3d037be2	0.032100566
57	0xbd73b236	-0.059496127
58	0xbd336efe	-0.043807022
59	0xbcf48c6e	-0.029852118
60	0xbd202660	-0.039099097
61	0x3aa078f2	0.0012243076
62	0x3d7f8aed	0.06238835
63	0x3d6b2cbf	0.05741572

features.4.weight f4 [64]
0	0x3f81efac	1.0151267
1	0x3f82b14a	1.0210354
2	0x3f80baa1	1.0056955
3	0x3f70ef66	0.94115293
4	0x3f83790d	1.0271317
5	0x3f82f3eb	1.0230688
6	0x3f7bc2c0	0.9834404
7	0x3f7e750a	0.9939734
8	0x3f82265a	1.0167954
9	0x3f708559	0.9395347
10	0x3f7c1492	0.9846889
11	0x3f7cd964	0.9876921
12	0x3f7e5f48	0.9936414
13	0x3f831dc1	1.0243455
14	0x3f6e81cb	0.931668
15	0x3f81b7c8	1.013421
16	0x3f81c428	1.0137987
17	0x3f814ece	1.0102174
18	0x3f801ff5	1.0009753
19	0x3f823297	1.0171689
20	0x3f8322a7	1.024495
21	0x3f5a3895	0.8524259
22	0x3f82447e	1.0177152
23	0x3f7e75b9	0.9939838
24	0x3f838033	1.0273498
25	0x3f7ee1df	0.995634
26	0x3f7095f1	0.9397879
27	0x3f7899d3	0.9710972
28	0x3f7d0670	0.9883795
29	0x3f813865	1.0095335
30	0x3f810291	1.0078908
31	0x3f7a91d5	0.9787877
32	0x3f76820c	0.96292186
33	0x3f7eec60	0.9957943
34	0x3f7243c7	0.9463467
35	0x3f797f46	0.9745983
36	0x3f78f6f6	0.9725183
37	0x3f732546	0.9497875
38	0x3f819608	1.0123911
39	0x3f8155c8	1.0104303
40	0x3f7fe954	0.99965405
41	0x3f827a17	1.0193509
42	0x3f80f9df	1.0076255
43	0x3f80b295	1.0054499
44	0x3f78d390	0.9719782
45	0x3f7c00cc	0.98438716
46	0x3f739bea	0.9515978
47	0x3f81da1a	1.0144684
48	0x3f8216a1	1.0163156
49	0x3f8362ce	1.0264528
50	0x3f80adc3	1.0053028
51	0x3f8168fa	1.0110161
52	0x3f80627b	1.0030054
53	0x3f7f5b56	0.9974874
54	0x3f7e0d2e	0.9923886
55	0x3f818cc4	1.0121083
56	0x3f66d91f	0.9017505
57	0x3f808cc0	1.0042953
58	0x3f75b374	0.9597695
59	0x3f81cec8	1.014123
60	0x3f819591	1.0123769
61	0x3f82412a	1.0176136
62	0x3f81cca8	1.0140581
63	0x3f82fa07	1.0232552

features.4.bias f4 [64]
0	0xbbc58d05	-0.0060287737
1	0x3c80d723	0.015727585
2	0x3d04702e	0.032333545
3	0xbbd753dc	-0.006571276
4	0x3c34d2ff	0.0110366335
5	0x3c7970e0	0.015224665
6	0x3c4a505e	0.012348263
7	0xbc197145	-0.0093653845
8	0xbbe4add7	-0.006978731
9	0xbc75eb9b	-0.015009786
10	0x3c7e6908	0.015527971
11	0xbc2425f3	-0.010018813
12	0x3c503e85	0.012710218
13	0x3c90982c	0.017650686
14	0x3b8b949e	0.00425966
15	0x3c73b6f1	0.01487516
16	0x3ce1eb34	0.027577974
17	0xbbe44907	-0.0069667134
18	0xbc0d4f18	-0.008624814
19	0x3bcc6837	0.0062380093
20	0xbb770655	-0.0037692983
21	0xbbf7e303	-0.0075649037
22	0xbbf0e4e2	-0.0073515037
23	0xbc1db763	-0.009626242
24	0x3c610bf4	0.01373576
25	0xbb1258e5	-0.0022330817
26	0xbc0b0b28	-0.008486547
27	0xbc1f183c	-0.009710368
28	0x3bfcdaba	0.007716504
29	0xbc002d81	-0.007823349
30	0xbbf889c4	-0.0075847823
31	0x3c608121	0.013702662
32	0x3c3252db	0.010884012
33	0x3c32e0ed	0.010917884
34	0xbc7a9a0a	-0.015295515
35	0x3c1657b1	0.009176181
36	0x3c65446d	0.013993365
37	0xbbfb5150	-0.0076696053
38	0x3c54536d	0.012959343
39	0xbbf170e2	-0.007368193
40	0xbc21f2b2	-0.009884523
41	0x3cb16323	0.021653717
42	0x3c977960	0.018490493
43	0x3bdd5bee	0.0067553436
44	0xbc39dc15	-0.011343976
45	0xbc53a2aa	-0.0129172
46	0xbc640511	-0.013917224
47	0x3ccebff9	0.025238024
48	0xbbd45722	-0.0064801136
49	0x3cf9daf1	0.030499907
50	0xbbd2db34	-0.0064348225
51	0x3c6242fe	0.0138099175
52	0xbc00e567	-0.007867194
53	0xbbc3e3f8	-0.0059781037
54	0x3be8e494	0.0071073268
55	0x3c9a5188	0.018837705
56	0x3c65cf23	0.014026436
57	0xbc0dc750	-0.008653477
58	0xba405bb1	-0.0007337882
59	0x3c525c40	0.012839377
60	0xbbce5fe8	-0.006298054
61	0x3c7c500a	0.015399942
62	0x3c8df47a	0.01732849
63	0x3c8a5821	0.016887726

features.4.running_mean f4 [64]
0	0x3d7c5ed4	0.061613873
1	0xbcf93ce9	-0.030424552
2	0x3cc500c1	0.024048211
3	0xbe9360b0	-0.28784704
4	0x3dfe9e67	0.124325566
5	0xbd0e233d	-0.034701575
6	0xbd1cb4eb	-0.038258474
7	0x3ea0f236	0.31434792
8	0x3b8cab16	0.004292856
9	0xbd7c288a	-0.0615621
10	0x3da7bb5a	0.08190031
11	0x3e509f5d	0.20373292
12	0x3e1d88e9	0.15384258
13	0xbe7f0c77	-0.24907099
14	0x3e9989e6	0.2998802
15	0x3cc622fb	0.024186602
16	0x3ece1248	0.40248322
17	0x3e6b42e5	0.22974737
18	0x3d76d060	0.060257316
19	0x3e1ea2ed	0.15491839
20	0xbda5b3c6	-0.0809093
21	0xbec48f16	-0.38390416
22	0xbdf035e3	-0.11729028
23	0x3db90a52	0.090351716
24	0xbe0465f2	-0.12929514
25	0x3ef2f6f7	0.47454044
26	0xbce3ce1c	-0.027808242
27	0x3e50c224	0.20386559
28	0x3e479a2a	0.19492403
29	0x3e2d9297	0.16950451
30	0x3d54d461	0.051960353
31	0x3e0578ad	0.13034315
32	0x3dc3c1d1	0.09558452
33	0x3ca9aef1	0.020713301
34	0x3e11eedd	0.14251275
35	0xbd85b94a	-0.06529482
36	0x3dbae95f	0.09126543
37	0xbdf54145	-0.1197534
38	0xbe2f1a8b	-0.17099969
39	0x3d8e7d62	0.069575086
40	0xbe274ba7	-0.16337453
41	0x3e446d70	0.19182372
42	0xbdb2c1fa	-0.08728404
43	0x3dbb5472	0.09146966
44	0x3ebb2859	0.3655422
45	0xbc5de7a1	-0.013543994
46	0xbe9e980d	-0.3097538
47	0x3d781ec3	0.06057621
48	0x3f002fdb	0.5007302
49	0xbe619ad1	-0.22031714
50	0xbbdde22b	-0.006771346
51	0xbd6ca0ac	-0.057770416
52	0xbdd136d6	-0.10215537
53	0x3e74d27f	0.23908423
54	0x3de29486	0.11063485
55	0xbeacf20e	-0.33778423
56	0x3df1d15d	0.11807511
57	0x3e033c06	0.12815866
58	0xbdeccaaf	-0.11562096
59	0x3d9ba470	0.07599723
60	0x3aa70b61	0.001274448
61	0xbe85733a	-0.26064473
62	0x3dc6373e	0.09678505
63	0x3cb58bdc	0.022161417

features.4.running_var f4 [64]
0	0x3e0af6bc	0.13570684
1	0x3d8860ce	0.06659089
2	0x3e24d123	0.16095404
3	0x3d9dc6f6	0.077039644
4	0x3dc7ed51	0.097620614
5	0x3d9a24d3	0.07526555
6	0x3e1e2777	0.15444742
7	0x3e387c48	0.1801616
8	0x3e0d9345	0.1382571
9	0x3dbd7fd6	0.092528984
10	0x3d9a4d33	0.07534256
11	0x3db54aaf	0.088521354
12	0x3dae5b35	0.0851349
13	0x3d9df7e3	0.07713296
14	0x3e1ba2db	0.15198843
15	0x3decbfd4	0.11560026
16	0x3df381d0	0.11889994
17	0x3e2eb8cf	0.17062686
18	0x3dabb69d	0.0838444
19	0x3dbf4e18	0.09341067
20	0x3de2e294	0.110783726
21	0x3de4c0e0	0.111696005
22	0x3dee9f13	0.11651435
23	0x3e0f1511	0.1397288
24	0x3de2afe1	0.110687025
25	0x3e265e7e	0.16246983
26	0x3d956cf3	0.07296171
27	0x3df54c00	0.119773865
28	0x3e1b5a0a	0.15171066
29	0x3db38b83	0.08766844
30	0x3ddc59e8	0.10759336
31	0x3de240df	0.110475294
32	0x3e296919	0.16543998
33	0x3e290a36	0.16507801
34	0x3dd73ee0	0.10510039
35	0x3df702b9	0.12061066
36	0x3e0f9025	0.1401983
37	0x3e26b463	0.1627975
38	0x3df3fbb6	0.119132444
39	0x3dc2a111	0.09503377
40	0x3e36ec0e	0.17863485
41	0x3dc6aea9	0.097012825
42	0x3dc627f8	0.09675592
43	0x3dfea16c	0.124331325
44	0x3dec1e76	0.115292475
45	0x3de91691	0.11381257
46	0x3db10f06	0.086454436
47	0x3da33eb3	0.07970943
48	0x3ddf8dc2	0.1091571
49	0x3db8d790	0.0902549
50	0x3dc2993a	0.09501882
51	0x3dce1b64	0.10063818
52	0x3dba1527	0.09086066
53	0x3db7a649	0.08967263
54	0x3e17ddee	0.14830753
55	0x3e0cf39d	0.13764806
56	0x3e2ebfa8	0.17065299
57	0x3dd450f3	0.10367002
58	0x3dd0fa6f	0.102040164
59	0x3daed7a8	0.08537227
60	0x3dee5090	0.1163646
61	0x3deb7dc2	0.11498596
62	0x3dd2a583	0.10285475
63	0x3ddbf1ed	0.10739503

features.6.excitation.0.weight f4 [16, 64, 1, 1]
0	0xbcb1df92	-0.021713052
1	0xbd3edf66	-0.046599768
2	0x3cf91036	0.030403238
3	0xbad029c2	-0.0015881585
4	0xbcbeb550	-0.023279816
5	0xbc6054fa	-0.013692135
6	0x3aa6b6ca	0.001271927
7	0x3d49754f	0.04918414
8	0xbb84d3b8	-0.004053559
9	0x3be75862	0.0070600966
10	0x3c38e1f7	0.011284343
11	0xbd762c75	-0.06010099
12	0xbc17b1cc	-0.009258699
13	0xbc8676bf	-0.016414044
14	0x3d6f2bd6	0.058391415
15	0x3b41c03b	0.0029564041
16	0xbbfb4356	-0.007667939
17	0xbcdacbaa	-0.026708443
18	0x3c76f75c	0.0150736235
19	0xbbca36be	-0.0061710766
20	0x3d426d54	0.047467545
21	0x3cabf045	0.020988593
22	0xbca9a7e9	-0.020709949
23	0xbc8a15b8	-0.01685606
24	0x3c361bb6	0.011115005
25	0x3d2a35d8	0.041555256
26	0xbcead52a	-0.028666098
27	0xbcb0a575	-0.021563271
28	0x3c2dec07	0.010615355
29	0xbd28b23c	-0.041185603
30	0x3ba57b46	0.0050500957
31	0x3c6f3774	0.014600623
32	0x3d0d2d97	0.034467306
33	0x3c7a859b	0.015290643
34	0x3b6fb988	0.003657909
35	0x3cb5b087	0.022178901
36	0xbcb062c5	-0.021531472
37	0xbcbfbc40	-0.023405194
38	0xbb66a531	-0.0035193677
39	0x3b83fbd5	0.0040278235
40	0xbc99e6f2	-0.018786881
41	0xbc985efb	-0.018599978
42	0xbc369933	-0.011144924
43	0x3c57547b	0.0131427
44	0xbca8be5c	-0.020598583
45	0x3c0f248c	0.008736741
46	0xbc7078a5	-0.014677201
47	0xbbcd97db	-0.006274206
48	0xbd413e82	-0.047178753
49	0x3983132a	0.00025000545
50	0xb99cc3fe	-0.00029900664
51	0x3c10666c	0.008813482
52	0xbbe841f6	-0.0070879413
53	0x3d59ad20	0.05314362
54	0x3cf9a935	0.030476192
55	0x3cc649a4	0.024205036
56	0xb976f889	-0.00023552975
57	0xbcbebf4a	-0.023284573
58	0xbcd1502b	-0.025550922
59	0xbc4facd6	-0.012675485
60	0xbc193bc9	-0.009352633
61	0xbc55f4e1	-0.013058872
62	0xbac6402e	-0.0015125328
63	0xbc82e0d7	-0.015976353
64	0x3d82c8b9	0.06385941
65	0x3dbc2649	0.0918699
66	0x3c63aff8	0.013896935
67	0xbdadfb78	-0.084952295
68	0x3c6d51ae	0.014484806
69	0xbc20e03e	-0.0098190885
70	0xbd856021	-0.06512476
71	0xbdb289af	-0.08717667
72	0x3d19a4b1	0.037510578
73	0xbd780bba	-0.06055806
74	0xbdb91d79	-0.090388246
75	0xbd9328c9	-0.071855135
76	0x3cef579f	0.029216586
77	0xbcfd9d13	-0.030958688
78	0x3dc207b3	0.09474125
79	0xbccbf403	-0.024896627
80	0x3c649883	0.013952377
81	0x3c7a141a	0.015263582
82	0xbd31eb72	-0.04343743
83	0xbdd7be68	-0.10534364
84	0xbc846941	-0.01616347
85	0x3d216c31	0.03940982
86	0x3dd01a28	0.10161239
87	0x3de32816	0.1109163
88	0xbd8f88c3	-0.07008507
89	0xbd98a4d1	-0.07453311
90	0xbd0f4146	-0.03497436
91	0xbdf00e5a	-0.11721487
92	0x3de39824	0.11113003
93	0x3dd9fb06	0.10643582
94	0x3dc45356	0.095862076
95	0x39085f2b	0.00013005424
96	0x3da7b5a4	0.08188942
97	0xba51387e	-0.0007981135
98	0x3d0099ab	0.03139655
99	0x3d831f1a	0.064024165
100	0xbd079566	-0.03310146
101	0xbd0b1510	-0.033955634
102	0xbde00e85	-0.109402694
103	0x3ded2e6c	0.1158112
104	0x3d541e01	0.051786426
105	0xbdb5f605	-0.08884815
106	0xbe0d247d	-0.1378345
107	0xbb301354	-0.002686699
108	0xbc149006	-0.009067541
109	0x3e05bd8d	0.13060589
110	0x3d4ffc9a	0.05077801
111	0xbd0789c8	-0.033090383
112	0x3ddfb33a	0.10922857
113	0xbd45101f	-0.048111077
114	0xbca7e4cf	-0.020494847
115	0xbddc5560	-0.107584715
116	0x3d4fac0d	0.05070119
117	0xbd91d243	-0.07120182
118	0xbd004930	-0.031319797
119	0xbd8f1cf9	-0.06987948
120	0x3dc9bcd6	0.09850471
121	0x3e0feb2a	0.14054552
122	0x3d371dd2	0.044706173
123	0xbca56f44	-0.020194657
124	0x3d6be412	0.05759055
125	0xbdd2fad6	-0.103017494
126	0xbd87e12b	-0.06634744
127	0xbe025556	-0.12727866
128	0xbb613e46	-0.0034369393
129	0xbdac29ac	-0.08406386
130	0xbc695e84	-0.014243726
131	0x3d75aabf	0.05997729
132	0x3d407826	0.046989582
133	0xbcd5e086	-0.026108038
134	0x3d13a6c7	0.036047723
135	0x3d23b0c1	0.039963488
136	0xbdbeb191	-0.09311212
137	0xbdcd2f10	-0.10018742
138	0x3e03ef3f	0.12884234
139	0xbd2098b3	-0.039208125
140	0xbdb4f2b4	-0.088353544
141	0x3ddfdf28	0.109312356
142	0x3d8e39fc	0.069446534
143	0x3d2d236e	0.042270117
144	0x3cd46d09	0.025930898
145	0x3dbbec05	0.091758765
146	0x3db657a0	0.08903432
147	0xbd54b7d3	-0.05193312
148	0x3e0198e2	0.12655976
149	0x3cda4340	0.026643395
150	0x3d86f25e	0.065891966
151	0xbd4094d2	-0.047016926
152	0x3c2290a3	0.009922179
153	0x3d9dbf42	0.07702495
154	0x3d4bdfdc	0.049774036
155	0xbd7b8d26	-0.061413907
156	0x3c3ca84a	0.011514733
157	0xbdbfcfe8	-0.09365827
158	0x3d5f4719	0.054511163
159	0x3a2b6bf5	0.0006539219
160	0xbdf1c9ec	-0.11806092
161	0xbc58d5c3	-0.0132345585
162	0xbd83d6cf	-0.06437456
163	0xbdd08a27	-0.101826005
164	0x3d377c72	0.044796415
165	0x3d8aeded	0.06783662
166	0xbdc083a0	-0.094001055
167	0x3c86c08c	0.016449235
168	0x3d99898e	0.074969396
169	0xbd6a52be	-0.057207815
170	0xbb114110	-0.0022164024
171	0x3c1626e2	0.009164544
172	0x3c0bd595	0.008534809
173	0xbd382cf8	-0.04496476
174	0xbd30efc9	-0.043197427
175	0x3c810b8d	0.015752578
176	0xbd5831e0	-0.05278194
177	0xbd9f2ee3	-0.07772615
178	0xbd92ffc9	-0.071776934
179	0xbd80a286	-0.06280999
180	0xbd90d960	-0.07072711
181	0xbd2a3ec3	-0.04156376
182	0xbd76dacc	-0.060267255
183	0xbd30a515	-0.043126184
184	0x3de8ef2d	0.11373744
185	0x3da0537d	0.07828424
186	0x3ddc3748	0.107527316
187	0x3c5b9031	0.013401077
188	0xbb07217c	-0.0020619323
189	0xbcd70419	-0.026247071
190	0x3c5d613c	0.013511952
191	0xbda36c08	-0.0797959
192	0x3cda1509	0.026621358
193	0xba06942c	-0.00051337737
194	0xbddf7c49	-0.109123774
195	0x3cab76fe	0.020930763
196	0xbdfb1212	-0.12259306
197	0xbd7f2ce0	-0.062298656
198	0x3cfafc62	0.030637924
199	0x3d8a1773	0.06742754
200	0x3d1d0838	0.038337916
201	0xbd5ccbe9	-0.0539054
202	0x3d8a5fd9	0.06756563
203	0xb98b7b26	-0.000266039
204	0x3c8f8ed9	0.01752417
205	0x3d75cb64	0.06000842
206	0xbbc1f42f	-0.0059190015
207	0xbd917878	-0.07103056
208	0x3d5d4e42	0.05402971
209	0xbcaf6d5d	-0.021414453
210	0xbd870075	-0.06591884
211	0xbd550eea	-0.052016176
212	0x3dd59c00	0.10430145
213	0x3d98263e	0.07429169
214	0xbdde5e5e	-0.10857843
215	0xbcb7949b	-0.022409728
216	0xbde26477	-0.110543184
217	0x3dc883e3	0.097907804
218	0x3ddf9df0	0.10918796
219	0x3cdb91f5	0.026802996
220	0x3d4cfc9b	0.05004559
221	0x3ccd48ad	0.025059069
222	0xbd6d42ba	-0.057924964
223	0xbcce395b	-0.025173834
224	0xbd76658f	-0.060155448
225	0x3d266a85	0.04062893
226	0xbdc34506	-0.095346496
227	0xbcfaa55e	-0.030596431
228	0xbd54da8e	-0.051966242
229	0xbcda321d	-0.026635224
230	0x3dad9677	0.084759645
231	0x3debd848	0.11515862
232	0xbd8ef3d4	-0.069801
233	0xbb9dc74c	-0.004815018
234	0xbca0ac91	-0.019613536
235	0x3d94adc3	0.07259705
236	0x3dc2f07c	0.09518525
237	0x3c6a3c72	0.014296638
238	0x3de7b901	0.113145836
239	0x3b78350c	0.0037873415
240	0x3dc93cce	0.09826051
241	0x3c4ae1c9	0.012382933
242	0xbc05e076	-0.008171191
243	0x3dce6a42	0.10078861
244	0x3d97f1e0	0.07419181
245	0xbe1629ef	-0.14664434
246	0x3d52a86a	0.051430143
247	0xbd447336	-0.047961436
248	0x3d8f609e	0.0700085
249	0xbd1ff784	-0.03905441
250	0xbdb60de4	-0.08889368
251	0xbe12a005	-0.14318855
252	0xbca03673	-0.019557213
253	0x3c8ce280	0.017197847
254	0x3ca3bcac	0.019987427
255	0xbd3a5f05	-0.045500774

features.6.excitation.0.bias f4 [16]
0	0xba9c2a31	-0.001191443
1	0xbac1313c	-0.0014739404
2	0xbcfe141f	-0.031015454
3	0xbd4bd3dc	-0.04976259
4	0x3de86ec0	0.11349249
5	0x378fbce8	1.7134895e-05
6	0xbca2e5d1	-0.019884976
7	0x3ca93f17	0.020659966
8	0x3c8d086d	0.017215932
9	0xbb391ff6	-0.002824781
10	0x3dee7eb6	0.11645262
11	0x3d9b5832	0.07585181
12	0xbdceedcf	-0.10103952
13	0x3d645375	0.055743653
14	0x3d8a62fc	0.06757161
15	0xbdd13ae6	-0.10216312

features.6.excitation.2.weight f4 [64, 16, 1, 1]
0	0xb7dc7148	-2.6278794e-05
1	0x3de71991	0.11284173
2	0xbd82c3bc	-0.063849896
3	0x3d905f57	0.07049435
4	0x3d9e1c70	0.07720268
5	0xbd8256b0	-0.063641906
6	0xbe17a0e0	-0.14807463
7	0x3db0cf7c	0.086333245
8	0x3e2e907f	0.17047308
9	0xbe5cfc33	-0.21580581
10	0x3e3dc75c	0.18533081
11	0xbd5f7978	-0.0545592
12	0x3e53a7c4	0.20669466
13	0xbd2edf32	-0.042693324
14	0x3dbaa6d7	0.091138534
15	0x3e419ed7	0.18908249
16	0x3c97310e	0.018456008
17	0xbe85b332	-0.26113278
18	0x3c18ba4d	0.009321761
19	0xbe603580	-0.21895409
20	0x3da0e3ce	0.0785595
21	0x8c96a5a5	-2.3210853e-31
22	0x3dc63ea3	0.09679916
23	0xbd2e4398	-0.04254493
24	0xbd30ed0c	-0.043194816
25	0x3e9067ac	0.28204095
26	0x3df5b0d0	0.11996615
27	0x3c4c0226	0.012451684
28	0xbd93e355	-0.072210945
29	0xbddc3548	-0.1075235
30	0x3e5a375f	0.21310185
31	0x3b745dac	0.0037287278
32	0x38de241e	0.00010592512
33	0xbe4dd268	-0.20099795
34	0x3e284d6f	0.16435789
35	0xbdbcfc9f	-0.09227871
36	0x3e3932b6	0.18085751
37	0xbd8e456b	-0.06946834
38	0xbe0bdb1f	-0.13657807
39	0x3d8d7133	0.06906357
40	0xbe548614	-0.20754272
41	0x3e9efbe4	0.31051552
42	0x3e21213c	0.15735334
43	0x3e875450	0.26431513
44	0x3ba7c983	0.0051204576
45	0xbe6731dc	-0.22577614
46	0x3d125f88	0.035735637
47	0xbddfe1c5	-0.10931734
48	0x3ceadf9d	0.02867108
49	0xbe13db28	-0.1443907
50	0xbd0407ee	-0.032234125
51	0xbdb1a3a4	-0.0867379
52	0xbdd34710	-0.103162885
53	0x38eb2ede	0.00011214403
54	0xbdfce6f5	-0.12348739
55	0x3e227dfa	0.15868369
56	0xbe3964dc	-0.18104881
57	0xbd6c8544	-0.05774428
58	0xbe413e7d	-0.18871494
59	0x3e38cdb0	0.18047214
60	0x3c887c4d	0.016660834
61	0x3e1fbebd	0.15600105
62	0xbd4575c3	-0.04820801
63	0xbd8a1179	-0.06741614
64	0x3c997f16	0.018737357
65	0x3d338d4c	0.043835923
66	0x3cb0454b	0.021517416
67	0xbe24074c	-0.16018409
68	0x3d035f4a	0.032073297
69	0xbc2a47bc	-0.010393079
70	0x3e5bca44	0.21463877
71	0x3e185afa	0.14878455
72	0x3d4ce28f	0.05002075
73	0xbe1b81b2	-0.15186194
74	0x3e85e396	0.26150197
75	0x3d81f5ef	0.06345736
76	0xbe2aeb66	-0.1669136
77	0xbcca878b	-0.024722835
78	0x3e2b574a	0.16732517
79	0x3d746864	0.059669867
80	0xbca300ab	-0.01989778
81	0xbe0a9ad3	-0.13535623
82	0x3e0d9901	0.13827898
83	0xbd806458	-0.06269139
84	0x3d847b27	0.06468802
85	0xbd8dea66	-0.069294736
86	0x3d209f1e	0.039214246
87	0x3e3882a9	0.18018593
88	0x3de1b4e0	0.11020827
89	0x3e8b4a6e	0.27205223
90	0x3db3b76b	0.087752186
91	0x3e6d37d5	0.2316583
92	0xbe0868f9	-0.13321294
93	0xbcbd3e58	-0.023101017
94	0x3c1f147a	0.009709472
95	0xbe1959ef	-0.14975713
96	0xba74c02c	-0.0009336497
97	0xbe05844e	-0.13038751
98	0x3d8e4840	0.06947374
99	0xbdb83309	-0.08994109
100	0x3d1a9850	0.037742913
101	0xbcc06de7	-0.023489906
102	0x3e3cfac3	0.18455033
103	0x3df739a6	0.120715424
104	0x3e2cae7f	0.1686344
105	0x3e04a72c	0.12954396
106	0xbe1feab9	-0.15616883
107	0xbdec1c08	-0.11528784
108	0x3db3139f	0.08743977
109	0xbe2c735b	-0.1684088
110	0x3e1099c2	0.14121154
111	0x3dc05271	0.093907245
112	0xbd3fa8d9	-0.046791885
113	0x3e0ed56a	0.13948599
114	0x3ce8a203	0.028397566
115	0x3e2630f1	0.16229607
116	0xbe469db7	-0.19396101
117	0xb93b98f7	-0.00017890694
118	0x3c3b4d34	0.011431981
119	0xbd74117d	-0.05958699
120	0x3d817f0f	0.06323063
121	0xbe607529	-0.21919693
122	0x3e00aea5	0.12566622
123	0x3dc44ef5	0.09585372
124	0x3da44cc2	0.08022453
125	0xbd99505a	-0.07486029
126	0x3d86291e	0.06550811
127	0xba3f8c1b	-0.0007306949
128	0xbd237e82	-0.03991557
129	0x3e832cfe	0.25620264
130	0xbe2a5061	-0.16632225
131	0x3e16b423	0.14717154
132	0xbd8c761c	-0.06858465
133	0x3d8c202b	0.06842073
134	0x3e809ce0	0.25119686
135	0x3d0df079	0.03465316
136	0xbd15b119	-0.036545847
137	0x3dc8855e	0.09791063
138	0x3e30c586	0.17262849
139	0xbe45143f	-0.19246005
140	0xbe04546e	-0.12922832
141	0x3e6deeb9	0.23235597
142	0xbd19238a	-0.03738741
143	0xbe6f35c4	-0.23360354
144	0xbcbf531e	-0.023355063
145	0xbc57cfec	-0.013172131
146	0xbdae304e	-0.08505307
147	0xbbd3dcf1	-0.0064655473
148	0x3d361900	0.044457436
149	0xbcfa6b3f	-0.030568717
150	0xbccef5fc	-0.025263779
151	0x3ca900b5	0.02063022
152	0x3e50b428	0.20381224
153	0xbdf5331f	-0.11972641
154	0x3e033543	0.12813286
155	0xbd6dd407	-0.058063533
156	0x3dc37c26	0.09545164
157	0x3e522977	0.2052363
158	0xbe279faa	-0.16369501
159	0x3e3f9550	0.18709302
160	0xbca35b18	-0.019940898
161	0xbe39c5a4	-0.181418
162	0x3d280f56	0.04103025
163	0xbd0e0af0	-0.0346784
164	0x3d5bdd08	0.05367759
165	0xbb05f292	-0.0020438773
166	0xbe653901	-0.22385027
167	0x3d7e1833	0.062034797
168	0xbe157be7	-0.14598046
169	0x3d3e2b45	0.046427984
170	0x3dfbb5b7	0.12290519
171	0x3d865ec0	0.06561041
172	0xbd0d2f8d	-0.034469176
173	0xbe29e7cb	-0.16592328
174	0x3e6a38f8	0.22873294
175	0xbe01726a	-0.12641302
176	0xb6868a75	-4.0096297e-06
177	0x3e477270	0.19477248
178	0xbd466a93	-0.04844148
179	0xbc2275f7	-0.00991582
180	0x3e6d5811	0.23178126
181	0xbd79575e	-0.060874335
182	0x3bae083f	0.0053110416
183	0xbdef1439	-0.11673779
184	0xbdddf366	-0.1083744
185	0x3df54bde	0.11977361
186	0xbdd379f1	-0.10325993
187	0x3e0a2283	0.13489728
188	0xbd5bc82b	-0.053657692
189	0x3e837ced	0.25681248
190	0xbe19cbb7	-0.15019117
191	0xbcb15b4e	-0.021649983
192	0x3d57e5ac	0.052709267
193	0xbe5680d2	-0.20947579
194	0x3b41326a	0.0029479512
195	0x3d1aaa57	0.037760105
196	0x3e0dc8d1	0.13846137
197	0xaf3a0b21	-1.6920555e-10
198	0xbdf830df	-0.121186964
199	0x3d4cf12a	0.05003468
200	0x3dde1bec	0.108451694
201	0x3b2a8234	0.0026017549
202	0x3d70f285	0.058825035
203	0xbdc9b8b3	-0.09849682
204	0x3dec8677	0.11549085
205	0x3d3f0603	0.046636593
206	0xbdb7f0cd	-0.08981476
207	0x3e849698	0.25896144
208	0x3c896bd7	0.016775055
209	0xbe20556b	-0.15657584
210	0x3dc89c3c	0.09795424
211	0xbde2be0e	-0.11071406
212	0x3e794131	0.24341275
213	0xbd214c04	-0.039379135
214	0x3e7ad664	0.24495846
215	0x3e026641	0.1273432
216	0xbca144e5	-0.019686172
217	0x3e8505d7	0.25981018
218	0xbd982aae	-0.074300155
219	0x3ce0f5cd	0.027460957
220	0x3d8cf0a1	0.06881834
221	0x3e24227d	0.16028781
222	0x3e5081ef	0.20362066
223	0xbe3ec98c	-0.18631572
224	0x3a1bfdec	0.0005950618
225	0x3dbd659d	0.09247897
226	0x3c9b6c9c	0.018972687
227	0x3d2d3bdb	0.04229341
228	0x3b98d344	0.0046638567
229	0x1eff3009	2.7019042e-20
230	0xbce4d5ed	-0.027934039
231	0xbe27a9fd	-0.16373439
232	0xbe10f886	-0.14157304
233	0x3e09f7f4	0.13473493
234	0x3e52d8ce	0.20590517
235	0xbbdb14f6	-0.0066858483
236	0x3e027f82	0.12743953
237	0xbe1064c0	-0.14100933
238	0x3e184fd8	0.14874208
239	0x3ddf8797	0.109145336
240	0x3a8901ac	0.0010452769
241	0xbd2e4f0f	-0.042555865
242	0x3cb78502	0.02240229
243	0x3d1c9ddd	0.038236488
244	0x3c2f29b7	0.010691098
245	0xbce0174d	-0.02735486
246	0x3e1365db	0.14394324
247	0xbdb6bd13	-0.08922782
248	0xbdd66018	-0.10467547
249	0x3e8f6c32	0.28012234
250	0x3daa1868	0.083054364
251	0x3e0ffe14	0.14061767
252	0x3dcf443e	0.10120438
253	0xbdb96d56	-0.09054057
254	0x3e60e7af	0.2196338
255	0xbdf5cfe1	-0.120025404

features.6.excitation.2.bias f4 [64]
0	0xbc35e660	-0.011102289
1	0x3e521dde	0.20519206
2	0xbc3ccf05	-0.011523967
3	0x3d65fb5b	0.056147914
4	0xbda0b289	-0.07846553
5	0x3e84db9f	0.25948808
6	0xbd8d0778	-0.0688619
7	0xbe412ea1	-0.18865444
8	0x3c938ca3	0.018011397
9	0xbe2daf4e	-0.16961405
10	0xbe51e3db	-0.20497076
11	0x3de72ba8	0.11287624
12	0x3e703b66	0.23460159
13	0x3e867bff	0.26266477
14	0x3e582940	0.21109486
15	0xbe542a48	-0.20719254
16	0x3e6e21bd	0.23255058
17	0xbd8a7b34	-0.067617804
18	0x3d84c715	0.064832844
19	0x3e7a24d4	0.24428111
20	0xbbc2bea0	-0.0059431344
21	0x3d7f69a2	0.0623566
22	0x3dc3bb2d	0.09557185
23	0x3e671e12	0.22570065
24	0x3da07348	0.07834488
25	0xbcba9b0d	-0.022779012
26	0x3d45d892	0.04830224
27	0x3e13f5b3	0.14449196
28	0xbe3ed726	-0.1863676
29	0xbdc33dd0	-0.09533274
30	0x3e647ac3	0.22312455
31	0x3ca50e06	0.020148288
32	0x3e147b86	0.14500245
33	0xbd9c28fb	-0.07625004
34	0xbdd232a9	-0.10263569
35	0x3e64a965	0.22330244
36	0xbe5b2615	-0.21401246
37	0xbd90d8b6	-0.07072584
38	0xbd36f6f5	-0.04466911
39	0xbe52c67e	-0.20583531
40	0x3e569b26	0.20957622
41	0xbe5039db	-0.2033457
42	0x3db53e80	0.088498116
43	0x3e46fdc3	0.1943274
44	0xbe07c152	-0.1325734
45	0xbdf88a94	-0.12135807
46	0x3d09a175	0.033601243
47	0xbc0f0ac6	-0.008730596
48	0x3d89789c	0.067124575
49	0xbe326071	-0.17419602
50	0xbe589b6f	-0.21153043
51	0x3e6ec244	0.23316294
52	0xbdfb78cd	-0.122789
53	0xbe52707e	-0.20550725
54	0xbe4fd6a5	-0.20296724
55	0x3e5b898b	0.21439187
56	0x3e36d347	0.17854033
57	0xbe21160a	-0.15731063
58	0xbdaf0962	-0.085467115
59	0x3da8ae8c	0.08236417
60	0x3e173c69	0.14769138
61	0xbc445a57	-0.011984429
62	0x3de14f9b	0.11001512
63	0xbe4745f8	-0.19460285

classifier.2.weight f4 [1, 64]
0	0xbdb860a6	-0.09002809
1	0x3df34f4b	0.11880358
2	0x3d8629dc	0.06550953
3	0xbcd564ca	-0.026049037
4	0x3e0f97e9	0.14022793
5	0x3e01a572	0.12660769
6	0x3da1cfb2	0.07900943
7	0xbdc362d2	-0.09540333
8	0xbd982af9	-0.074300714
9	0xbc2de7fe	-0.010614393
10	0x3db062cc	0.08612594
11	0xbcde98dd	-0.0271725
12	0x3d6927a6	0.056922577
13	0x3e0fdae5	0.14048345
14	0x3d3a7ef2	0.04553122
15	0x3cf282eb	0.029603442
16	0x3dea71c6	0.11447482
17	0xbdf58c60	-0.11989665
18	0xbd21b1fd	-0.039476383
19	0x3deb2809	0.114822455
20	0xbdfe891d	-0.12428496
21	0xbbfe7b29	-0.0077661467
22	0xbda94c82	-0.08266546
23	0xbd429804	-0.047508255
24	0x3e062c6e	0.13102886
25	0xbcd86217	-0.02641396
26	0xbd09ed36	-0.033673488
27	0xbd26aa79	-0.04068992
28	0x3d94862f	0.07252156
29	0xbd3b0222	-0.04565633
30	0xbdc93863	-0.09825208
31	0x3d02135c	0.031756744
32	0x3d1f2ba1	0.038859967
33	0x3d9f6898	0.077836215
34	0xbcb68b0b	-0.022283098
35	0x3d0dc627	0.0346128
36	0x3dcca21c	0.099918574
37	0xbd2f6853	-0.0428241
38	0x3df47bc7	0.11937671
39	0xbdd32624	-0.10310009
40	0xbd81862c	-0.063244194
41	0x3dccbb4e	0.09996663
42	0x3d47d0cc	0.04878311
43	0x3e0a30bc	0.13495153
44	0xbdab5e89	-0.083676405
45	0xbd335df4	-0.043790773
46	0xbcab9631	-0.02094564
47	0x3dd15658	0.10221547
48	0xbd769fd0	-0.060211003
49	0x3e1747cf	0.14773487
50	0xbd5c0128	-0.05371204
51	0x3da9cf33	0.08291473
52	0xbd31e12a	-0.043427624
53	0x3df5f075	0.12008754
54	0x3dacac78	0.08431333
55	0x3d89a9ac	0.067218155
56	0x3bd00c02	0.0063490877
57	0xbd0916ac	-0.033468887
58	0xbcce2521	-0.025164189
59	0x3da110b8	0.07864517
60	0xbd8355f8	-0.064128816
61	0x3e1abfe6	0.15112266
62	0x3dc79117	0.097444706
63	0x3df0d7a0	0.11759877
